Report/checkpoint_actor.pth (torch_old, 92444 bytes, 18 tensors)

bn1.weight f4 [33]
1.0367321 0.7444215 1.0044221 0.64451456 0.4415375 0.44810697 0.5004052 0.18085611
0.17222553 0.20736504 0.27869526 0.27857375 0.3000194 1.7933911 1.034084 1.5464036
0.48652205 0.7681036 0.50756186 0.8067697 0.24358566 0.19958438 0.22037198 0.76676285
0.549457 0.65750605 1.7908237 0.22002661 1.7106115 0.25708312 0.045797765 0.17550886
1.6731513
00000000: a3b3 843f 6892 3e3f e790 803f e8fe 243f
00000010: 3411 e23e 476e e53e 8e1a 003f 5832 393e
00000020: e45b 303e 8057 543e 25b1 8e3e 38a1 8e3e
00000030: 259c 993e d78d e53f dd5c 843f 8ef0 c53f
00000040: 6b19 f93e 70a2 443f 93ef 013f 7688 4e3f
00000050: 856e 793e d95f 4c3e 31a9 613e 924a 443f
00000060: 37a9 0c3f 5152 283f b639 e53f a84e 613e
00000070: 51f5 da3f 66a0 833e 7096 3b3d 98b8 333e
00000080: d229 d63f

bn1.bias f4 [33]
-0.19772543 -0.12971728 -0.11924287 0.13014151 0.011984313 0.061453503 0.06611964 -0.053982347
-0.033976182 -0.04537297 0.25358906 -0.26896662 0.04354143 -0.16544674 0.21806458 -0.5627595
0.054913137 -0.05134107 -0.06717598 -0.08116525 -0.10405778 0.07758582 -0.033158608 -0.051591754
-0.061580993 -0.17402898 0.10189635 0.20502947 0.101603575 -0.02949088 -0.18260586 0.22108984
0.1689483
00000000: 8978 4abe 9bd4 04be 9b35 f4bd d143 053e
00000010: da59 443c abb6 7b3d bc69 873d 981c 5dbd
00000020: 9c2a 0bbd 02d9 39bd 6dd6 813e feb5 89be
00000030: 8058 323d df6a 29be 524c 5f3e 0211 10bf
00000040: 99ec 603d 044b 52bd 8f93 89bd f739 a6bd
00000050: 3f1c d5bd 50e5 9e3d 52d1 07bd e051 53bd
00000060: 5a3c 7cbd a734 32be 09af d03d 3ff3 513e
00000070: 8915 d03d dc96 f1bc 08fd 3abe 6065 623e
00000080: c800 2d3e

bn1.running_mean f4 [33]
-0.3041377 -2.5253255 0.08391253 0.7520685 -0.032798827 0.00056084 0.014813133 0.03424224
-0.009479489 -0.023074461 0.0007431541 -0.04555622 -0.0014751286 -0.3428005 -2.7953625 0.00824437
0.040488936 0.06589637 0.022395395 -0.27532795 -0.025539223 0.0063890843 -0.08833192 0.015417702
0.1395338 -0.010725977 -0.056533046 -0.99999976 0.07384883 0.0 0.99999976 0.0
0.008253379
00000000: f0b7 9bbe ef9e 21c0 55da ab3d 9087 403f
00000010: 1058 06bd 5605 133a c8b2 723c 9741 0c3d
00000020: dc4f 1bbc a706 bdbc 3ad0 423a 2999 3abd
00000030: 1a59 c1ba 8c83 afbe 38e7 32c0 6513 073c
00000040: bad7 253d adf4 863d 8c76 b73c c9f7 8cbe
00000050: a237 d1bc 865b d13b 5ee7 b4bd 879a 7c3c
00000060: f3e1 0e3e 02bc 2fbc 328f 67bd fcff 7fbf
00000070: 0e3e 973d 0000 0000 fcff 7f3f 0000 0000
00000080: 2e39 073c

bn1.running_var f4 [33]
3.8933237 0.99676144 4.7036476 0.1778211 0.06490136 0.07322753 0.1172988 0.6488239
0.075913 0.17182173 3.011458 2.6207232 3.2459178 17.753372 3.3702981 21.709743
0.11074781 0.26261505 0.115622506 0.4291976 2.395785 0.6886305 1.177567 11.46657
10.565075 11.528865 31.957607 6e-45 32.04298 6e-45 6e-45 6e-45
0.3659093
00000000: 372c 7940 c22b 7f3f 4884 9640 bc16 363e
00000010: 01eb 843d 51f8 953d 5a3a f03d 5319 263f
00000020: 4678 9b3d 09f2 2f3e babb 4040 eeb9 2740
00000030: 1ebd 4f40 e806 8e41 f7b2 5740 8ead ad41
00000040: bfcf e23d 7b75 863e 7ecb ec3d cabf db3e
00000050: 8b54 1940 174a 303f 84ba 963f 1277 3741
00000060: 8c0a 2941 3b76 3841 2ea9 ff41 0400 0000
00000070: 032c 0042 0400 0000 0400 0000 0400 0000
00000080: 7758 bb3e

fc1.weight f4 [128, 33]
-1.4155457 0.4687989 -0.28214192 0.41380572 1.395228 0.25210315 -0.2253083 -0.18503544
-0.59102887 -0.14057511 -1.3997338 -0.19778562 -0.50246596 1.1517653 -0.10537384 -0.25971678
-0.048782825 -0.58789855 -0.40967757 -0.2600277 0.123655334 0.22505444 0.0768796 -0.22580399
-0.07420614 -0.15913281 -0.3561914 -0.53578573 0.07482806 0.37821838 0.4764323 -0.5243248
1.5514541 -0.45938239 0.29530647 0.2726422 0.48446226 -0.035155825 -0.3432962 0.338901
-0.9008649 0.67139703 1.516507 -0.49661553 0.5223226 -0.20794846 0.85268426 0.49902984
-0.5220053 1.0503336 0.604902 0.4269143 -0.98899996 0.093269125 -0.90802896 -0.056580026
1.2837845 0.6781473 -0.43825978 -0.42394954 -0.59999967 1.0987189 -0.17003384 0.2585292
-0.5297193 0.58465654 -1.2383556 -0.7120248 0.045437653 -0.13913521 -0.740357 0.6159647
-0.24607718 0.67945105 0.01863698 -0.48785648 0.1010647 -1.1698189 -0.1815458 1.3263984
-0.9678359 -0.0434262 0.36373326 0.03330376 0.42850813 0.27542576 -0.312844 0.42228693
-0.15901306 -0.09992212 -1.2719482 -0.35428274 0.60430324 -0.794003 0.88641953 0.1653421
0.55207026 -0.75822437 -0.64768046 -0.7576169 0.39672202 0.36429352 0.04411641 -0.2861815
0.082348675 0.5698671 -0.36036387 0.79150236 0.500956 0.32628652 0.3463365 -0.34438026
1.0180831 -0.40629584 -0.4318881 -0.48264825 -1.6010427 -0.035298232 0.062232252 -1.1163799
0.5438681 -0.3822342 1.3667413 -0.47192112 -0.8264281 -0.302824 -1.1055503 -0.6592799
0.12025905 0.7580095 -1.0997736 -0.61581343 -0.09047255 0.52763677 -1.0168265 0.37713954
-0.19870923 0.6321998 -0.727899 0.53175914 -1.3575796 -0.019129792 0.6165006 -0.20036057
0.6771955 0.13235028 -0.9094315 1.1568761 0.2603312 1.5640335 0.8237013 0.53688514
-0.14512761 -0.82175523 -0.34640765 0.18944333 -0.49949065 0.28042307 -0.009635555 -0.73365176
0.6892757 -0.23517534 0.70150554 -0.8582019 -0.14681037 1.1884682 -0.3724479 -1.2808908
0.51127183 0.046575125 -0.06111559 0.82180256 -1.2629324 -0.27832332 0.93992424 1.0760521
-0.26973045 -0.7684528 -0.16794692 0.08457172 1.1549937 -1.0218983 -0.58066297 -0.33796456
-0.7752921 0.39209244 -0.7702201 1.5343325 -0.033719644 -0.41047323 0.5296417 -0.67807585
0.009943463 -0.14412458 0.13375223 0.15781592 0.078899756 -0.32714817 -0.30783373 -0.53128105
0.13963912 0.14790238 0.19524254 -0.14255437 0.8404765 -0.7853877 -0.45630467 0.32660273
0.055031132 -0.31239575 0.640569 -0.03283321 -0.11605533 0.13900702 0.80023986 1.031998
-0.251122 0.2688876 0.07886531 -0.36725238 0.8394376 0.089433126 -0.28009623 0.46398532
-0.050583515 -0.3376538 -0.5520037 -0.10321392 0.12304197 -0.35407728 0.37755963 0.541203
-0.28681383 1.2142067 0.23041841 -0.26393682 0.4715359 0.8489481 -0.9182462 0.41530657
0.64982915 0.010729937 0.21877655 1.1424 -1.3597827 0.043706868 -0.84548515 0.7549915
-0.47725508 0.31570596 0.32134655 -0.13722378 0.30869853 -0.3566536 -0.6040304 -0.13071688
00000000: 9a30 b5bf 6906 f03e e874 90be 58de d33e
00000010: d596 b23f aa13 813e 38b7 66be ee79 3dbe
00000020: ab4d 17bf ecf2 0fbe 7a2a b3bf 5088 4abe
00000030: 9ca1 00bf 0c6d 933f 3dce d7bd 99f9 84be
00000040: 80d0 47bd 8580 16bf 42c1 d1be 5a22 85be
00000050: 023f fd3d ac74 663e 0d73 9d3d 2939 67be
00000060: 64f9 97bd b6f3 22be b85e b6be 4129 09bf
00000070: 743f 993d d7a5 c13e efee f33e 263a 06bf
00000080: 0c96 c63f 2b34 ebbe 6932 973e c297 8b3e
00000090: 700b f83e 8eff 0fbd 85c4 afbe 6f84 ad3e
000000a0: 159f 66bf ade0 2b3f e71c c23f 6444 febe
000000b0: efb6 053f 71f0 54be 8449 5a3f d780 ff3e
000000c0: 24a2 05bf 5571 863f dcda 1a3f 8394 da3e
000000d0: 1a2f 7dbf e203 bf3d 9674 68bf 75c0 67bd
000000e0: 0d53 a43f 109b 2d3f 9663 e0be ea0f d9be
000000f0: 9499 19bf d2a2 8c3f 5a1d 2ebe f05d 843e
00000100: af9b 07bf 0dac 153f 7082 9ebf 4247 36bf
00000110: d51c 3a3d 7679 0ebe 0988 3dbf ddaf 1d3f
00000120: a8fb 7bbe 81f0 2d3f 94ac 983c 53c8 f9be
00000130: 02fb ce3d a0bc 95bf 24e7 39be 6cc7 a93f
00000140: 18c4 77bf acdf 31bd 3f3b ba3e 8669 083d
00000150: 6b65 db3e 9b04 8d3e 172d a0be fe35 d83e
00000160: 52d4 22be f8a3 ccbd 33cf a2bf 8c64 b5be
00000170: 9eb3 1a3f c843 4bbf 64ec 623f 714f 293e
00000180: 7a54 0d3f fe1a 42bf 63ce 25bf 2ef3 41bf
00000190: 261f cb3e ae84 ba3e 69b3 343d 6286 92be
000001a0: 6ca6 a83d cfe2 113f 9d81 b8be e69f 4a3f
000001b0: a73e 003f 070f a73e 0553 b13e 9c52 b0be
000001c0: 8c50 823f 0206 d0be 7020 ddbe ac1d f7be
000001d0: f8ee ccbf e194 10bd 3fe7 7e3d 89e5 8ebf
000001e0: f13a 0b3f 33b4 c3be 61f1 ae3f a59f f1be
000001f0: cb90 53bf bf0b 9bbe ac82 8dbf 91c6 28bf
00000200: 604a f63d e90c 423f 62c5 8cbf f3a5 1dbf
00000210: ac49 b9bd 3413 073f 5f27 82bf 6f18 c13e
00000220: 6f7a 4bbe d9d7 213f 9757 3abf 5e21 083f
00000230: 2bc5 adbf 15b6 9cbc fcd2 1d3f 522b 4dbe
00000240: af5c 2d3f d586 073e 81d0 68bf 8414 943f
00000250: 224a 853e 4032 c83f 17de 523f 4e71 093f
00000260: 559c 14be 8d5e 52bf 585c b1be 6ffd 413e
00000270: 3dbd ffbe 9d93 8f3e 72de 1dbc 9ad0 3bbf
00000280: 5f74 303f ced1 70be de95 333f 1fb3 5bbf
00000290: 7555 16be ba1f 983f 7eb1 bebe 3bf4 a3bf
000002a0: b6e2 023f 8fc5 3e3d 5754 7abd a761 523f
000002b0: c5a7 a1bf 6580 8ebe e09e 703f 13bc 893f
000002c0: 1c1a 8abe 53b9 44bf 47fa 2bbe f033 ad3d
000002d0: d5d6 933f 90cd 82bf 54a6 14bf b109 adbe
000002e0: 8b79 46bf 57c0 c83e 252d 45bf 0265 c43f
000002f0: 9c1d 0abd 8c29 d2be 9996 073f 6196 2dbf
00000300: e8e9 223c 6595 13be 58f6 083e 7f9a 213e
00000310: 3296 a13d f77f a7be 629c 9dbe 0902 08bf
00000320: 8ffd 0e3e b973 173e a9ed 473e c6f9 11be
00000330: 7829 573f 2b0f 49bf c4a0 e9be 7938 a73e
00000340: 5368 613d 56f2 9fbe 54fc 233f 1e7c 06bd
00000350: 6bae edbd db57 0e3e 85dc 4c3f 8318 843f
00000360: 1093 80be a3ab 893e 2384 a13d 8108 bcbe
00000370: 62e5 563f b728 b73d c668 8fbe 7c8f ed3e
00000380: a930 4fbd f5e0 acbe 1d50 0dbf d261 d3bd
00000390: 6efd fb3d 9e49 b5be 7f4f c13e 488c 0a3f
000003a0: 43d9 92be 206b 9b3f cef2 6b3e ba22 87be
000003b0: 276d f13e aa54 593f 2f12 6bbf 10a3 d43e
000003c0: 345b 263f 9ecc 2f3c f606 603e 2a3a 923f
000003d0: 5c0d aebf f905 333d b771 58bf 1f47 413f
000003e0: c75a f4be 36a4 a13e 8987 a43e 6484 0cbe
000003f0: bc0d 9e3e 4d9b b6be bca1 1abf a5da 05be

fc1.bias f4 [128]
-0.5232499 -0.8089887 -0.7337469 -1.2129222 -1.0181264 0.11054891 -0.4591505 -0.24967837
-0.6731258 0.6884946 -0.22319572 -0.49144244 -1.0657129 -0.115147576 0.08131569 -0.95640403
-0.043895796 -0.6840991 0.051323492 -0.47934014 -0.058524556 -0.64810467 0.25720927 -0.83664143
-0.32338148 0.14453728 -1.2231114 0.12931071 -0.18421364 -1.7229474 -1.2258949 -1.1477374
-1.2195113 -0.81199926 -1.3737422 -0.08403702 -1.0868436 -0.17379084 0.43720728 -0.43921766
-1.0834619 -0.05598218 -1.2497702 -0.15605864 -0.61915475 -0.5849603 0.13332126 -0.21351126
0.5467421 -0.44477814 -0.020046884 -0.82225585 -0.057192035 0.32501918 -0.47477728 0.8005684
-1.5888385 -0.50831634 -1.0335102 -0.9715197 0.5935981 0.26523122 0.098331824 -0.23097375
-1.0865325 -0.34917998 -0.23325081 -1.0735197 -0.22772525 -0.5076335 -0.9093138 -0.6953676
-0.054731656 0.048220035 -0.9050301 -1.1245047 0.8038428 0.32318133 0.03616627 -0.5557157
0.22434756 0.42035875 -0.7338428 -0.98105115 -0.9727373 0.2597324 -0.71857476 -0.2497345
0.025030041 -0.43339598 -0.53199977 -0.75510544 -0.23634623 -0.77367705 -0.8589377 0.1437113
0.2981389 0.7631758 -1.0267096 -0.6783434 0.73271894 -0.9952645 -0.98109955 -0.4094292
-1.2136106 -0.63144 1.2342491 -0.0974685 -0.08000117 -0.7558533 -0.05152687 0.3561151
-0.39168704 -1.1484468 0.7768059 0.22416192 0.5189979 -0.44205818 0.58054835 -1.0434703
-1.0252838 0.02705843 -0.5250174 -0.120062314 -0.25217125 -1.0443863 0.20676276 -0.5569678
00000000: b5f3 05bf e219 4fbf d6d6 3bbf 0941 9bbf
00000010: f751 82bf 7867 e23d c615 ebbe b0ab 7fbe
00000020: f951 2cbf 2f41 303f 6b8d 64be 589e fbbe
00000030: 4869 88bf 7ed2 ebbd d788 a63d e5d6 74bf
00000040: 14cc 33bd 1e21 2fbf 9538 523d 126c f5be
00000050: 72b7 6fbd 30ea 25bf efb0 833e 222e 56bf
00000060: 4292 a5be 9501 143e ea8e 9cbf 076a 043e
00000070: 80a2 3cbe 8a89 dcbf 20ea 9cbf 0fe9 92bf
00000080: f218 9cbf 2fdf 4fbf c9d6 afbf 9a1b acbd
00000090: b11d 8bbf 3af6 31be a2d9 df3e 23e1 e0be
000000a0: e1ae 8abf 924d 65bd 78f8 9fbf d6cd 1fbe
000000b0: ed80 1ebf f5bf 15bf 5e85 083e b2a2 5abe
000000c0: 4af7 0b3f f6b9 e3be 5d39 a4bc 5c7f 52bf
000000d0: 3242 6abd ea68 a63e 0216 f3be 0df2 4c3f
000000e0: 0f5f cbbf 0521 02bf 104a 84bf 84b5 78bf
000000f0: 0cf6 173f 63cc 873e 3262 c93d 6284 6cbe
00000100: 7f13 8bbf b8c7 b2be 4dd9 6ebe 1869 89bf
00000110: cf30 69be 45f4 01bf cac8 68bf 9c03 32bf
00000120: 4d2e 60bd 5f82 453d 0db0 67bf c5ef 8fbf
00000130: a4c8 4d3f 0678 a53e 1523 143d 6243 0ebf
00000140: 5ebb 653e 4339 d73e 1fdd 3bbf 2b26 7bbf
00000150: 5005 79bf a5fb 843e 84f4 37bf 67ba 7fbe
00000160: cd0b cd3c 14e6 ddbe 2331 08bf 974e 41bf
00000170: bf04 72be b30f 46bf 57e3 5bbf 0e29 133e
00000180: a9a5 983e 7d5f 433f 386b 83bf eaa7 2dbf
00000190: 7893 3b3f a7c9 7ebf 5729 7bbf b4a0 d1be
000001a0: 9857 9bbf 0da6 21bf e0fb 9d3f 919d c7bd
000001b0: a7d7 a3bd 9a7f 41bf d70d 53bd b854 b63e
000001c0: 348b c8be 4e00 93bf c0dc 463f b48a 653e
000001d0: 0cdd 043f 7355 e2be d19e 143f 6f90 85bf
000001e0: 803c 83bf a4a9 dd3c 8a67 06bf 3be3 f5bd
000001f0: 971c 81be 73ae 85bf 9eb9 533e 7195 0ebf

bn2.weight f4 [128]
1.0483966 1.0055721 1.1149176 0.97888905 0.9814801 0.80007946 1.3526953 0.8391627
1.4405417 1.0803747 0.8585131 1.4506981 0.90514874 0.8007733 0.91808474 0.94670564
1.7269502 1.132687 1.0591581 1.9806076 0.8591285 0.76285964 0.97149897 0.96654993
1.336375 1.1268708 1.2732745 1.1144019 0.822185 0.9863892 0.92558974 0.92898226
0.96575725 0.7491443 0.955691 1.3097898 1.2846293 1.3533903 0.9899242 0.99020463
1.1084 1.2279868 0.83897096 1.3123568 1.1410055 1.2036039 1.7089965 1.1050137
1.428056 0.9493768 1.1952155 0.9995052 1.2614063 0.8736357 1.1675801 0.9403483
0.49092618 0.89824766 0.829634 1.0386344 0.82752717 1.0696104 0.8791519 0.8446753
1.0682851 1.0397246 0.94461864 1.0593922 0.72250676 0.7022175 1.1153406 0.77332515
1.2421682 0.9934259 1.3574842 1.168139 1.246572 0.8502167 1.0078942 1.2178396
0.7834081 1.1645536 0.8414946 1.2496578 1.3625618 1.043504 0.8871689 0.94791096
0.9694952 1.0458057 0.2753214 1.13139 1.0056429 0.9363909 1.0412437 1.431173
0.8559844 1.2083246 1.0384918 0.87764174 1.1194661 1.5214659 0.9637592 1.4278586
0.7686508 1.1321174 0.8901376 1.2913942 0.7625152 0.75866234 1.0554159 1.1212213
0.8137809 1.2323599 0.90739125 0.9687704 1.2817168 0.9408085 1.2408608 0.8632688
0.62662756 1.1109585 1.1023769 1.0532094 0.9887562 1.0382514 1.0663626 1.1008894
00000000: dc31 863f 96b6 803f 9fb5 8e3f 7998 7a3f
00000010: 4842 7b3f 02d2 4c3f 1f25 ad3f 5ed3 563f
00000020: ac63 b83f b849 8a3f 84c7 5b3f 7ab0 b93f
00000030: d4b7 673f 7bff 4c3f 9a07 6b3f 4d5b 723f
00000040: b40c dd3f e3fb 903f 7e92 873f 8d84 fd3f
00000050: d8ef 5b3f c54a 433f 28b4 783f d16f 773f
00000060: 560e ab3f 4d3d 903f a9fa a23f b9a4 8e3f
00000070: b77a 523f 0184 7c3f 73f3 6c3f c8d1 6d3f
00000080: de3b 773f ecc7 3f3f 2aa8 743f 31a7 a73f
00000090: bc6e a43f e53b ad3f ac6b 7d3f 0d7e 7d3f
000000a0: 0de0 8d3f ac2e 9d3f cdc6 563f 4ffb a73f
000000b0: 780c 923f b10f 9a3f 66c0 da3f 1771 8d3f
000000c0: 8aca b63f 5c0a 733f d2fc 983f 93df 7f3f
000000d0: c375 a13f 97a6 5f3f 4473 953f abba 703f
000000e0: ad5a fb3e 8ff3 653f e562 543f f9f1 843f
000000f0: d2d8 533f fee8 883f 1910 613f a43c 583f
00000100: 91bd 883f b215 853f 87d2 713f 2a9a 873f
00000110: 34f6 383f 87c4 333f 7bc3 8e3f a3f8 453f
00000120: 5eff 9e3f 2951 7e3f 0bc2 ad3f 9485 953f
00000130: ac8f 9f3f cda7 593f ad02 813f 2be2 9b3f
00000140: 6f8d 483f 1810 953f 316c 573f c9f4 9f3f
00000150: 6d68 ae3f 8a91 853f 801d 633f 4baa 723f
00000160: d630 783f f6dc 853f edf6 8c3e 63d1 903f
00000170: e8b8 803f 50b7 6f3f 7947 853f ad30 b73f
00000180: cb21 5b3f 61aa 9a3f 4ded 843f 21ad 603f
00000190: aa4a 8f3f 65bf c23f ecb8 763f 12c4 b63f
000001a0: 4dc6 443f 39e9 903f 0fe0 633f 684c a53f
000001b0: 3234 433f b237 423f de17 873f 2e84 8f3f
000001c0: f253 503f f8bd 9d3f cb4a 683f 5601 783f
000001d0: 4c0f a43f d3d8 703f 87d4 9e3f 2fff 5c3f
000001e0: aa6a 203f e333 8e3f b01a 8d3f 91cf 863f
000001f0: 201f 7d3f 6ce5 843f 927e 883f f2e9 8c3f

bn2.bias f4 [128]
-0.3720322 -0.33384508 0.6170731 0.11929043 0.32032016 -0.16676824 0.48003748 -0.09520992
0.75158423 0.39553142 0.34963575 -0.373939 -0.18403268 -0.2647319 0.099341884 0.78627706
-1.1502291 0.19402476 0.058695097 -0.38446835 0.2539152 0.08149324 0.47695744 0.5219164
-0.20780963 0.51696193 0.5284975 0.55288583 0.22158617 0.37555575 0.27933744 -0.24217963
0.28584749 -0.16248123 0.13458946 0.13611335 0.32365814 0.9425531 -0.1693989 0.63898945
0.17111734 0.7311643 0.33719647 1.1597948 0.72048783 0.4760886 0.00696403 -0.0011099587
0.709772 0.43051648 -0.08612017 0.019266438 0.64692765 0.86597615 0.025312148 -0.029090656
0.1996391 0.11328518 0.007609422 0.5253653 -0.019845404 -0.28210413 0.25300902 1.0156558
0.3710167 0.38584042 0.5924049 0.0782572 0.47191864 0.14042622 0.24052456 0.22570801
0.35333917 0.26837778 -0.43047434 0.51963556 0.19876847 0.1127677 -0.071198545 -0.068787314
0.31173345 0.6095974 -0.021689225 0.7299119 0.27836767 0.4067514 0.37148634 0.14970708
0.45466805 -0.01761125 -0.0017832858 0.38525853 0.48170847 0.36793277 0.50956357 0.74987555
0.9265965 0.25162968 0.18985592 0.34570283 0.41957438 0.16198361 0.2352291 0.08469902
0.79165816 0.27919155 0.17541957 0.32405344 0.34123525 0.081973426 0.5284151 0.31893772
0.42968565 0.23305663 -0.19833633 1.2879807 -0.4037478 0.046575084 0.16373773 0.71560484
-0.20516357 0.26218912 -0.03746835 -0.032106917 0.38709518 0.06268259 0.0308887 0.48611304
00000000: 017b bebe beed aabe 81f8 1d3f 8a4e f43d
00000010: 0101 a43e 4bc5 2abe 79c7 f53e 6bfd c2bd
00000020: d367 403f 1883 ca3e 7503 b33e ef74 bfbe
00000030: 1073 3cbe f18a 87be c273 cb3d 7449 493f
00000040: b53a 93bf 6dae 463e 456a 703d 09d9 c4be
00000050: 2c01 823e eee5 a63d c433 f43e 509c 053f
00000060: 0ccc 54be 9e57 043f 9d4b 073f ed89 0d3f
00000070: 7ce7 623e d848 c03e 5105 8f3e f0fd 77be
00000080: 9a5a 923e 7b61 26be d2d1 093e 4c61 0b3e
00000090: 85b6 a53e 294b 713f e876 2dbe d094 233f
000000a0: 6239 2f3e 952d 3b3f 04a5 ac3e 2874 943f
000000b0: e471 383f e3c1 f33e 8532 e43b 097c 91ba
000000c0: 9eb3 353f a86c dc3e c65f b0bd a6d4 9d3c
000000d0: 0d9d 253f 9db0 5d3f 6c5b cf3c 874f eebc
000000e0: 316e 4c3e 0f02 e83d 7558 f93b 577e 063f
000000f0: d492 a2bc f46f 90be 668a 813e 0201 823f
00000100: e7f5 bd3e e08c c53e d9a7 173f 5045 a03d
00000110: 529f f13e e4cb 0f3e 124c 763e 0020 673e
00000120: dfe8 b43e d068 893e 2267 dcbe d606 053f
00000130: f689 4b3e c0f2 e63d 8bd0 91bd 5de0 8cbd
00000140: 879b 9f3e 930e 1c3f 9aad b1bc 82db 3a3f
00000150: 3586 8e3e b841 d03e 7533 be3e d04c 193e
00000160: 40ca e83e 7845 90bc 24bd e9ba 9b40 c53e
00000170: 7ea2 f63e af61 bc3e c272 023f d8f7 3f3f
00000180: 6e35 6d3f 9bd5 803e 9769 423e f6ff b03e
00000190: 74d2 d63e 08df 253e e6df 703e ae76 ad3d
000001a0: 1caa 4a3f 32f2 8e3e 30a1 333e 55ea a53e
000001b0: 63b6 ae3e afe1 a73d 3646 073f ce4b a33e
000001c0: c2ff db3e 66a6 6e3e ae18 4bbe 8ddc a43f
000001d0: 08b8 cebe 84c5 3e3d ddaa 273e e131 373f
000001e0: 6616 52be a73d 863e 6a78 19bd 8b82 03bd
000001f0: 5731 c63e bb5f 803d 4d0a fd3c cfe3 f83e

bn2.running_mean f4 [128]
0.9273325 0.5936768 1.0200062 0.399828 0.27858743 0.6048293 0.37436464 1.0412894
0.49541265 1.5729655 0.8120946 1.1382437 0.66516393 0.49027535 1.5170312 1.0915979
0.80796427 0.8183986 1.4440205 0.39927274 1.2567024 0.34561208 1.5926566 0.5340251
0.61344707 1.8996308 0.4499924 1.8172321 0.8811897 0.28181377 0.32715243 0.4247606
0.341283 0.35899708 0.3733124 0.7331751 0.4500201 1.1400061 0.9588639 0.87646836
0.34709945 0.647912 0.52845216 1.4894931 0.5830072 0.559767 1.9651161 0.91412646
1.7016555 1.1195282 0.38624114 0.24247558 1.3360448 1.5894909 0.54266346 2.0268176
0.120381735 0.8793158 0.27825105 0.13062151 1.5334427 1.505902 0.7523629 0.92800367
0.5753597 1.0766389 1.2402335 0.6747383 1.2877414 1.294484 0.61349076 0.5122452
1.2192936 0.71286905 0.66023034 0.84254074 1.7786943 1.808398 0.8720166 0.3642071
1.7735261 1.3145636 0.5188164 0.4125692 0.3052308 2.058154 0.37328103 0.7131242
1.1369655 0.54834074 6e-45 0.4544677 1.2410462 0.349365 0.16823003 1.7373343
1.5406063 2.4558764 0.46424887 0.873635 1.814576 0.8370657 0.48895553 0.8895186
0.38381958 0.95017326 3.0093143 0.880306 1.0638493 0.50208616 0.96765447 1.3334882
1.427907 0.45647117 1.9942576 1.4765983 0.4877477 0.72716486 0.8505261 0.7983893
0.21890691 1.2703592 0.43681937 1.1546202 0.5829635 0.31764916 1.9031479 0.9998763
00000000: aa65 6d3f 34fb 173f 908f 823f 41b6 cc3e
00000010: 03a3 8e3e 18d6 1a3f b9ac bf3e f948 853f
00000020: baa6 fd3e ef56 c93f 6fe5 4f3f f8b1 913f
00000030: 2f48 2a3f 5f05 fb3e 142e c23f 7bb9 8b3f
00000040: bfd6 4e3f 9282 513f aad5 b83f 7a6d cc3e
00000050: a0db a03f 11f4 b03e 2cdc cb3f deb5 083f
00000060: de0a 1d3f 1a27 f33f 6765 e63e 109b e83f
00000070: a695 613f e549 903e 8680 a73e 397a d93e
00000080: a5bc ae3e 77ce b73e ce22 bf3e 5db1 3b3f
00000090: 0969 e63e b8eb 913f 1b78 753f 3b60 603f
000000a0: 05b7 b13e 90dd 253f a448 073f b6a7 be3f
000000b0: f63f 153f e44c 0f3f ed88 fb3f 3104 6a3f
000000c0: d9cf d93f b34c 8f3f 66c1 c53e 854b 783e
000000d0: 8403 ab3f 7074 cb3f feeb 0a3f 61b7 0140
000000e0: b38a f63d d71a 613f ec76 8e3e a5c1 053e
000000f0: da47 c43f 66c1 c03f db9a 403f a691 6d3f
00000100: c64a 133f 4ecf 893f f9bf 9e3f a6bb 2c3f
00000110: b6d4 a43f a7b1 a53f bb0d 1d3f 8022 033f
00000120: d011 9c3f 967e 363f db04 293f c0b0 573f
00000130: 41ac e33f 9679 e73f 7b3c 5f3f 5a79 ba3e
00000140: e702 e33f 9f43 a83f 27d1 043f 453c d33e
00000150: 3647 9c3e ccb8 0340 b11e bf3e 4f8f 363f
00000160: 1688 913f 0f60 0c3f 0400 0000 feaf e83e
00000170: 9ada 9e3f f8df b23e 7e44 2c3e f860 de3f
00000180: 9632 c53f 142d 1d40 07b2 ed3e 8ba6 5f3f
00000190: 0744 e83f f049 563f 6158 fa3e 7eb7 633f
000001a0: 0084 c43e 8e3e 733f 9b98 4040 bc5b 613f
000001b0: 372c 883f b888 003f 34b8 773f beaf aa3f
000001c0: a8c5 b63f 97b6 e93e d543 ff3f 2c01 bd3f
000001d0: 11ba f93e 7a27 3a3f 14bc 593f 3e63 4c3f
000001e0: 2229 603e 219b a23f caa6 df3e 98ca 933f
000001f0: 193d 153f e9a2 a23e 5a9a f33f e5f7 7f3f

bn2.running_var f4 [128]
2.2334769 1.4208376 2.3319643 0.91406965 0.57738143 0.8632168 0.4889182 1.4106008
1.1377662 3.4443924 1.4963337 2.5856712 1.4990997 1.4917386 3.1721132 2.6367927
0.7143946 1.8749865 2.5292416 0.63681895 2.0349035 0.84068775 4.0874844 1.2043791
0.9647864 2.5633428 1.2290581 5.0286045 1.9955349 0.5840276 0.7067134 0.92222404
0.5955526 0.5336182 1.4461753 1.0671322 0.8239519 2.550014 1.5825474 1.9273283
0.94995743 0.9374411 1.0215042 3.9316278 1.2898711 0.82713103 1.0691066 1.3470587
0.65752673 1.598689 0.9348195 0.55310893 1.7729728 2.458339 1.3020898 3.389591
0.21189456 2.1727252 0.56325364 0.23207045 3.0175374 2.591227 1.4505414 2.2500968
1.7175349 2.5050561 3.991872 1.7455367 2.019116 3.3125727 1.544828 0.90871656
3.6933744 1.4542477 1.2734014 2.7572002 2.9689445 2.978853 1.6828995 0.9122407
3.8425813 1.2333875 0.9249163 0.73840076 0.6115405 4.8615856 0.6894591 1.5981636
2.418043 1.1523632 6e-45 1.0369807 2.518417 0.6094627 0.41433078 4.226843
2.5767632 1.6178905 0.89806944 1.752162 2.9719698 2.3101695 1.0854832 2.0490112
0.52980167 2.5479603 3.9714427 1.7983707 1.7019917 1.3980519 1.1878934 2.602559
1.5404739 1.1328893 3.002415 3.0283988 0.8030066 1.6769582 1.3948057 1.7514012
0.39188078 2.2371197 0.6405945 4.0160336 1.4092376 0.76855344 2.953655 2.933221
00000000: 49f1 0e40 02de b53f e73e 1540 7800 6a3f
00000010: 45cf 133f c7fb 5c3f 7c53 fa3e 918e b43f
00000020: 53a2 913f ed70 5c40 dd87 bf3f a37b 2540
00000030: 80e2 bf3f 4af1 be3f e703 4b40 36c1 2840
00000040: 91e2 363f 8fff ef3f 18df 2140 9106 233f
00000050: dc3b 0240 5037 573f accc 8240 1829 9a3f
00000060: 3efc 763f cf0d 2440 c751 9d3f 54ea a040
00000070: b06d ff3f d582 153f 2beb 343f e016 6c3f
00000080: 2376 183f 349b 083f 461c b93f ca97 883f
00000090: 83ee 523f 6e33 2340 ea90 ca3f b2b2 f63f
000000a0: 6930 733f 24fc 6f3f a6c0 823f ca9f 7b40
000000b0: 7f1a a53f dcbe 533f 7cd8 883f 6b6c ac3f
000000c0: ac53 283f d7a1 cc3f 5550 6f3f 8c98 0d3f
000000d0: c6f0 e23f 6d55 1d40 e1aa a63f 0fef 5840
000000e0: e3fa 583e ee0d 0b40 6431 103f e0a3 6d3e
000000f0: 551f 4140 aad6 2540 57ab b93f 9601 1040
00000100: 2fd8 db3f d752 2040 d57a 7f40 bf6d df3f
00000110: 3239 0140 3101 5440 edbc c53f a6a1 683f
00000120: 3f60 6c40 ca24 ba3f d1fe a23f f875 3040
00000130: 3003 3e40 87a5 3e40 4069 d73f 9b88 693f
00000140: daec 7540 a4df 9d3f 51c7 6c3f d507 3d3f
00000150: eb8d 1c3f 1c92 9b40 6480 303f a090 cc3f
00000160: 37c1 1a40 a380 933f 0400 0000 c9bb 843f
00000170: be2d 2140 bf05 1c3f 2a23 d43e 4c42 8740
00000180: b0e9 2440 0917 cf3f e1e7 653f d846 e03f
00000190: c134 3e40 d1d9 1340 1df1 8a3f 0023 0340
000001a0: 15a1 073f c811 2340 1e2c 7e40 0331 e63f
000001b0: ddda d93f 5df3 b23f e40c 983f 5490 2640
000001c0: 402e c53f 8402 913f 9127 4040 49d1 4140
000001d0: d791 4d3f 91a6 d63f fe88 b23f ea2d e03f
000001e0: 99a4 c83e f82c 0f40 00fe 233f 5983 8040
000001f0: e661 b43f ebbf 443f af08 3d40 e5b9 3b40

fc2.weight f4 [128, 128]
0.0033643902 0.41378003 -0.29628426 -0.045808446 -0.2311785 -0.2313871 -0.054912042 0.2022861
-1.6054133 0.11744512 -1.0677978 0.24229364 0.47887856 -0.29373056 -0.5724415 0.16946465
0.4031961 -0.23341265 0.20694724 0.052038286 -0.11366031 0.31696838 -0.027686661 0.13431391
0.16436112 0.7616291 0.51578975 -0.09118671 -0.029324925 -0.4651667 0.39721987 0.43194136
-0.013088351 -0.24512458 -0.28357053 -0.20584127 -0.60842615 0.26087508 -0.9008358 -0.061383784
0.22712016 -0.43900073 -0.31968865 -0.3191855 0.57832086 -0.30397677 1.031237 0.5145206
-0.18229444 -0.6177991 -0.22207673 0.5154404 -0.078124784 -0.5064877 -0.7376181 0.48404953
0.37877196 0.24926084 -0.6489941 0.60998666 0.7744522 0.4124231 -0.12881309 -0.57527477
0.05589385 0.12523723 -0.54087645 0.83757 -0.12961872 -0.41753402 0.40758476 -0.23681812
0.42297706 -0.20565411 -0.3099039 -1.0073383 -0.4760459 -0.21170367 -0.6424675 0.13275604
0.20620066 -0.7864535 -0.3240027 -0.5774324 -0.49294975 0.39643282 -0.47761518 0.16037264
-0.35508144 -0.9740827 -0.1467793 -0.42848596 -0.100358285 0.030044194 -0.7422383 -0.72124547
-0.5657202 -0.12781852 0.5281808 0.78676075 -0.21261358 0.17025323 -0.10003715 -0.4248527
-0.42047468 -0.20569663 -0.45289624 -0.5879647 -0.4287818 0.2977111 -0.69776416 0.17685993
-1.2154133 0.119277194 0.996753 -0.19230494 0.18639737 -0.5009934 -0.33755156 -1.1643201
0.31058028 0.054965977 0.65894014 0.4248436 -0.17416683 0.045770016 -0.09864135 -0.056744315
0.36177725 -0.19223732 0.31365758 -1.2961323 -0.36088872 0.74052644 0.741126 -0.17594305
0.89654183 0.051147215 1.0668186 -0.21873085 -0.6681142 -0.25255185 0.39279798 -0.30391252
-0.23428868 0.12509412 0.56020397 -0.5792913 0.22546002 -0.012523403 0.24650578 -1.4831979
0.45054314 -0.20880024 1.5623335 0.21960764 -1.0235381 0.620241 0.040355626 0.8224512
-0.9554086 -0.7205803 0.69937265 0.38894996 -0.6192963 -1.4245242 0.20889463 -1.0519342
-0.2983901 -0.22415961 -0.8339088 -1.8116822 -1.1412189 -0.6271894 -0.18110777 0.2407073
-0.48340246 -0.7482874 0.83311313 -0.3236273 -0.33429056 0.79566234 0.11821104 0.1846357
0.85443026 -1.7557881 -1.0193312 -0.24089521 0.3157251 -0.09743955 0.3166993 0.19454062
0.44654003 -0.11981034 0.8822762 -0.45950302 -1.1357343 1.2993457 0.6778974 0.23642676
-0.43932712 -0.61467814 -1.0457023 -1.6927649 -0.3268244 -2.4223657 -0.062047232 0.5473807
-0.08701292 -0.36422434 0.72564566 0.9612601 -1.179522 -1.4628497 -0.14562324 0.66397184
-0.82370174 0.38122162 0.31992865 0.93187195 1.2641829 0.7489109 -0.5381497 0.79757047
1.4407656 -0.9576125 -0.70314664 -0.7247568 0.7087062 -0.2417008 -0.019216212 -0.56084436
-0.30656493 -0.40742642 0.030637227 0.7243267 0.4146097 0.49505213 -0.75083524 -0.2152816
0.37613636 -0.031464063 -0.38965523 -0.13786721 0.089185275 -0.41461718 0.7695951 -1.712914
-0.5041638 1.4078262 0.73479766 0.3509643 1.2840761 -0.036354683 1.2826064 -1.332457
00000000: 1a7d 5c3b fada d33e 92b2 97be a3a1 3bbd
00000010: 0fba 6cbe bdf0 6cbe 73eb 60bd 1624 4f3e
00000020: 2f7e cdbf 1187 f03d 99ad 88bf d31b 783e
00000030: 922f f53e da63 96be 878b 12bf 2488 2d3e
00000040: b86f ce3e ba03 6fbe fae9 533e 1926 553d
00000050: bdc6 e8bd ae49 a23e 23cf e2bc 9689 093e
00000060: 484e 283e 20fa 423f cc0a 043f 19c0 babd
00000070: d33a f0bc 542a eebe 6760 cb3e 6b27 dd3e
00000080: 8670 56bc f001 7bbe 2830 91be 0ec8 52be
00000090: d1c1 1bbf 6b91 853e 2d9d 66bf 906d 7bbd
000000a0: 3092 683e b4c4 e0be 3bae a3be 486c a3be
000000b0: d60c 143f d8a2 9bbe 93ff 833f 9fb7 033f
000000c0: 65ab 3abe 1528 1ebf 1568 63be e7f3 033f
000000d0: e3ff 9fbd 2ea9 01bf 8ad4 3cbf 57d5 f73e
000000e0: 66ee c13e 3c3e 7f3e 7a24 26bf 1628 1c3f
000000f0: 8042 463f 1f29 d33e 94e7 03be 3545 13bf
00000100: f3f0 643d 303e 003e e176 0abf fd6a 563f
00000110: c5ba 04be 05c7 d5be f3ae d03e 7380 72be
00000120: 7390 d83e fe96 52be b9ab 9ebe 76f0 80bf
00000130: 4abc f3be d9c8 58be c078 24bf 33f1 073e
00000140: 4426 533e 0455 49bf afe3 a5be 9cd2 13bf
00000150: e963 fcbe 3ef9 ca3e fa89 f4be ba38 243e
00000160: 3ccd b5be 7c5d 79bf 504d 16be 8362 dbbe
00000170: a588 cdbd 3e1f f63c 5403 3ebf 8ba3 38bf
00000180: 0ad3 10bf dce2 02be db36 073f 2769 493f
00000190: 60b7 59be dd56 2e3e 47e0 ccbd 4b86 d9be
000001a0: 7548 d7be 23a2 52be 04e2 e7be db84 16bf
000001b0: 4a89 dbbe 976d 983e aca0 32bf c51a 353e
000001c0: aa92 9bbf 9a47 f43d 342b 7f3f 96eb 44be
000001d0: f4de 3e3e 1a41 00bf 8fd3 acbe 7108 95bf
000001e0: 6104 9f3e 0124 613d 4db0 283f 1a85 d93e
000001f0: ca58 32be 5779 3b3d 7a04 cabd ba6c 68bd
00000200: de3a b93e dcd9 44be ba97 a03e aae7 a5bf
00000210: 68c6 b8be 2493 3d3f 6fba 3d3f 6a2a 34be
00000220: c483 653f be7f 513d 838d 883f fbfa 5fbe
00000230: 8809 2bbf 7a4e 81be d11c c93e 6c9a 9bbe
00000240: 5fe9 6fbe ac18 003e 8769 0f3f 6f4c 14bf
00000250: fede 663e f62e 4dbc 036c 7c3e 6ed9 bdbf
00000260: 97ad e63e bbcf 55be 8bfa c73f d3e0 603e
00000270: 4c03 83bf 1dc8 1e3f f14b 253d 298c 523f
00000280: a895 74bf f377 38bf 160a 333f 7324 c73e
00000290: 348a 1ebf cf56 b6bf 79e8 553e c8a5 86bf
000002a0: 96c6 98be 198a 65be 0c7b 55bf 34e5 e7bf
000002b0: 7613 92bf 7c8f 20bf 5174 39be f97b 763e
000002c0: 8780 f7be c38f 3fbf e746 553f 7ab2 a5be
000002d0: 2228 abbe 87b0 4b3f a118 f23d 2411 3d3e
000002e0: f1bb 5a3f aabd e0bf 7279 82bf 3cad 76be
000002f0: b8a6 a13e 638e c7bd 6926 a23e a835 473e
00000300: e5a0 e43e 205f f5bd dadc 613f fb43 ebbe
00000310: be5f 91bf f650 a63f af8a 2d3f db19 723e
00000320: 7cef e0be 8c5b 1dbf 93d9 85bf 85ac d8bf
00000330: 8755 a7be 0a08 1bc0 3d25 7ebd 2421 0c3f
00000340: d433 b2bd 9d7b babe eac3 393f 2415 763f
00000350: 94fa 96bf a93e bbbf 421e 15be 0ffa 293f
00000360: 1ede 52bf 7b2f c33e b0cd a33e 298f 6e3f
00000370: bfd0 a13f a0b8 3f3f 2ec4 09bf 942d 4c3f
00000380: 026b b83f 1826 75bf 6b01 34bf a989 39bf
00000390: c56d 353f 6a80 77be 516b 9dbc 7f93 0fbf
000003a0: 14f6 9cbe 329a d0be ecfa fa3c 7a6d 393f
000003b0: b947 d43e 7977 fd3e bd36 40bf c872 5cbe
000003c0: f294 c03e 76e0 00bd e480 c7be 102d 0dbe
000003d0: c5a6 b63d b448 d4be 2f04 453f c440 dbbf
000003e0: e110 01bf a633 b43f b31b 3c3f 98b1 b33e
000003f0: 9b5c a43f a6e8 14bd 722c a43f f38d aabf

fc2.bias f4 [128]
-1.0319856 -0.21649578 -0.649218 -0.37120295 -0.008034854 -0.7925025 -0.7912157 -0.5841601
-0.4247516 -1.3907468 -0.98012877 -1.0573853 0.6858876 -0.4822331 -0.96072364 -0.8497193
-0.6842752 -0.3554482 -1.0620321 -0.04291673 -0.5726036 -0.7114835 -0.9014318 -0.42620093
-0.009601782 -1.064504 -0.74649364 -0.7548474 -0.5602086 -1.017786 0.39815843 0.33900076
-0.76475716 -0.20426959 -0.9076962 -1.2793502 -0.8795248 -0.9964117 -1.2205644 -1.3432312
0.8276858 -0.7992915 -0.69814867 -0.8353736 -0.70597994 -0.52306247 -1.051968 -0.45833656
-0.9079447 -0.71884054 -0.9965879 -0.255292 -0.40925592 -0.65259343 1.4953793 -0.12660097
-0.9989485 -0.17065665 -1.1991866 -0.7702322 -0.57792455 -0.12500638 -0.2863995 -0.08100704
-0.67489564 -1.1644899 -0.6074646 -0.6897592 -0.4723435 -0.73599833 -1.2814747 -0.7409639
-0.66885614 -0.7781206 0.025475498 -1.3024751 -0.941154 -0.9831262 -0.39119655 -0.57315725
-0.6457673 -0.83997405 -0.15295587 -0.5240274 -0.98017955 -0.49631464 0.20386517 -0.41059327
-0.33123642 -0.27655986 -0.45716056 -0.19361973 0.50359064 0.099517286 -0.3624115 -0.6008296
-0.871463 -0.2693856 -0.43072796 -0.95999074 -0.1312668 -0.6433409 -0.47403827 -0.26297814
-0.8886303 -0.715102 -1.2279644 -1.2682076 -0.16359897 -0.7774514 -0.86468226 -0.5705082
0.13496634 -0.37243217 -0.44530433 -0.746154 0.22149028 1.4534701 -1.0035344 -0.19169374
-1.1415123 -0.76091677 -0.7041906 -0.6626376 -0.24382107 -0.3704978 -0.52042884 -1.0369574
00000000: 1b18 84bf 12b1 5dbe 2733 26bf 500e bebe
00000010: 9fa4 03bc 72e1 4abf 1d8d 4abf 848b 15bf
00000020: 0b79 d9be fe03 b2bf b8e9 7abf 6758 87bf
00000030: 5496 2f3f 42e7 f6be fcf1 75bf 3487 59bf
00000040: a92c 2fbf 4efd b5be abf0 87bf 74c9 2fbd
00000050: 2696 12bf c823 36bf 3cc4 66bf 0237 dabe
00000060: cb50 1dbc ab41 88bf 351a 3fbf ae3d 41bf
00000070: d569 0fbf d046 82bf 6cdb cb3e 8291 ad3e
00000080: 20c7 43bf 0c2c 51be c75e 68bf bfc1 a3bf
00000090: 8a28 61bf d614 7fbf 743b 9cbf 00ef abbf
000000a0: 37e3 533f 5e9e 4cbf dfb9 32bf 0bdb 55bf
000000b0: 1abb 34bf 6ce7 05bf e3a6 86bf 17ab eabe
000000c0: 106f 68bf ef05 38bf 6220 7fbf a2b5 82be
000000d0: fe89 d1be 5d10 27bf 9768 bf3f afa3 01be
000000e0: 17bb 7fbf 9ec0 2ebe f27e 99bf f02d 45bf
000000f0: ddf2 13bf ac01 00be f5a2 92be 05e7 a5bd
00000100: f6c5 2cbf 010e 95bf cd82 1bbf 0f94 30bf
00000110: 02d7 f1be 636a 3cbf 5d07 a4bf cfaf 3dbf
00000120: 283a 2bbf e932 47bf feb1 d03c 81b7 a6bf
00000130: 78ef 70bf 29ae 7bbf ea4a c8be 6fba 12bf
00000140: 0151 25bf 8a08 57bf 77a0 1cbe a926 06bf
00000150: 0ced 7abf f41c febe 08c2 503e 4839 d2be
00000160: d297 a9be 4199 8dbe f310 eabe 4044 46be
00000170: 51eb 003f b8cf cb3d 008e b9be f8cf 19bf
00000180: 3318 5fbf e9ec 89be 6088 dcbe f4c1 75bf
00000190: ce6a 06be fdb1 24bf 25b5 f2be 12a5 86be
000001a0: 467d 63bf ed10 37bf f02d 9dbf a054 a2bf
000001b0: 7d86 27be 0e07 47bf d15b 5dbf d30c 12bf
000001c0: 9e34 0a3e 6eaf bebe eefe e3be f303 3fbf
000001d0: 59ce 623e 4f0b ba3f d173 80bf 5d4b 44be
000001e0: 131d 92bf 71cb 42bf d645 34bf 9ea2 29bf
000001f0: 3bac 79be e3b1 bdbe d33a 05bf 05bb 84bf

bn3.weight f4 [128]
1.476904 0.71423453 1.4807342 1.2459285 1.9558659 1.5419204 1.2306352 0.7848552
1.7841297 1.4546952 1.3053857 1.5736483 1.5585868 1.4128754 1.8470639 1.8286672
1.663273 1.2748563 1.9096383 1.2884269 1.3843485 1.0578071 1.2502607 1.0816381
1.5082738 1.2340035 1.4263325 1.1655225 1.6599983 1.6657788 0.9947685 1.2927946
1.15776 1.1995752 1.3423932 2.057802 1.0220246 1.6268266 1.5952235 1.4924687
1.6558799 1.7661035 1.460216 1.3948935 1.041769 0.5808595 1.4151411 1.030403
1.9027015 1.454216 1.4896501 1.2343322 1.1277571 1.4723846 -1.1151005 1.3903878
1.2692963 1.9603567 1.4080328 1.671616 1.1061429 1.394235 1.1628661 1.3586961
1.6644341 1.5499648 1.4117411 1.5598179 0.9976727 0.797891 1.7359341 1.3807353
1.2594883 1.691134 1.1206012 1.7308092 1.7049571 1.4452815 1.4639515 1.4757565
1.3533611 1.448936 1.702284 1.2644907 1.722545 1.5355318 1.2614511 1.3145428
1.8934008 1.1737592 0.886427 0.7829857 0.92239183 0.9638144 1.5183429 1.7058463
1.0204924 1.3916286 1.1988211 1.1754546 2.0214999 1.5246515 1.3718921 1.2031231
1.5386088 1.283656 1.3967719 1.8655243 1.3811283 1.8887049 1.1597936 1.2555298
1.1602272 1.1375755 1.3865365 1.5677991 1.0107274 1.2370287 1.416859 0.9990494
1.5230927 1.058498 1.2219484 1.0459365 1.2897329 1.3171672 1.0119607 1.4976927
00000000: 310b bd3f 13d8 363f b388 bd3f 967a 9f3f
00000010: d059 fa3f a65d c53f 7485 9d3f 45ec 483f
00000020: 5d5e e43f 7433 ba3f e116 a73f 4f6d c93f
00000030: c67f c73f 1ad9 b43f 976c ec3f c411 ea3f
00000040: 21e6 d43f 7e2e a33f 076f f43f 2ceb a43f
00000050: 5532 b13f 3966 873f 8b08 a03f 1e73 8a3f
00000060: 1e0f c13f d4f3 9d3f 1092 b63f d72f 953f
00000070: d37a d43f 3d38 d53f 26a9 7e3f 4b7a a53f
00000080: 7b31 943f ae8b 993f 8ad3 ab3f 07b3 0340
00000090: b4d1 823f db3b d03f 4930 cc3f 3709 bf3f
000000a0: dff3 d33f ae0f e23f 5ce8 ba3f df8b b23f
000000b0: b058 853f 35b3 143f 5823 b53f 3fe4 833f
000000c0: b98b f33f c023 ba3f dbac be3f 99fe 9d3f
000000d0: 585a 903f 1977 bc3f 9dbb 8ebf 3af8 b13f
000000e0: 4d78 a23f f8ec fa3f 6b3a b43f 83f7 d53f
000000f0: 1796 8d3f 4b76 b23f ccd8 943f c1e9 ad3f
00000100: 2d0c d53f 3f65 c63f efb3 b43f 1da8 c73f
00000110: 7a67 7f3f 9642 4c3f 1733 de3f efbb b03f
00000120: ea36 a13f 1477 d83f dc6f 8f3f 288b dd3f
00000130: 093c da3f fcfe b83f c362 bb3f 97e5 bc3f
00000140: f03a ad3f bc76 b93f 71e4 d93f d5da a13f
00000150: 5b7c dc3f 4e8c c43f 3b77 a13f f042 a83f
00000160: f55a f23f be3d 963f e1ec 623f c071 483f
00000170: df21 6c3f 8abc 763f 0f59 c23f 2c59 da3f
00000180: 7f9f 823f e320 b23f f872 993f 4c75 963f
00000190: 4160 0140 c827 c33f 299a af3f f0ff 993f
000001a0: 22f1 c43f d74e a43f 6cc9 b23f 80c9 ee3f
000001b0: d0c8 b03f 15c1 f13f 1e74 943f 33b5 a03f
000001c0: 5382 943f 139c 913f 077a b13f a4ad c83f
000001d0: 845f 813f f556 9e3f a35b b53f b4c1 7f3f
000001e0: b4f4 c23f dd7c 873f ce68 9c3f 3fe1 853f
000001f0: f815 a53f ef98 a83f ee87 813f 65b4 bf3f

bn3.bias f4 [128]
0.25678664 -0.0782223 0.32790333 0.1975205 0.25586793 0.31471986 0.049849823 0.16017699
0.35027447 0.17200905 0.24977577 0.3543208 0.07024183 0.25594565 0.38331112 0.2670735
0.2770795 0.1377111 0.35735813 0.27631482 0.18270242 0.19554365 0.12997404 0.22385421
0.37897587 0.21839245 0.25975832 0.03406118 0.15070708 0.3116045 -0.061650872 0.19829665
0.24530707 0.20443827 0.10994902 0.27273095 0.12030347 0.4030101 0.23638931 0.25159836
0.18276095 0.39833817 0.13994683 0.2719827 0.15203878 0.008137841 0.17729326 0.19068268
0.2816711 0.34693733 0.2839931 0.28837973 0.13774173 0.38990456 0.17449409 0.23258433
0.11693518 0.36756304 0.2032961 0.30349156 0.176122 0.20431109 0.15855491 0.2653313
0.30607224 0.34575325 -0.012153736 0.23458502 0.11326084 -0.042243116 0.30888218 0.1876281
0.2610898 0.26021728 0.13055353 0.25133944 0.18573341 0.16019462 0.31661868 0.31415647
0.33758345 0.20951748 0.35775572 0.25676572 0.35748398 0.3177747 0.19307387 -0.091843314
0.040148903 0.023997737 0.18081169 0.10507897 0.00722794 0.08601075 0.28117123 0.2055509
0.109282345 0.067437306 0.19448309 0.0334318 0.48619673 0.23110807 0.16804542 0.18045616
0.40567124 0.18160486 0.20346163 0.34881744 0.18327539 0.37424994 0.19957437 0.2616554
0.22080643 0.20802961 0.23204225 0.17328529 0.060379684 0.06858236 0.202056 0.066308714
0.35222515 0.19104612 0.1610797 0.2768651 0.28745607 0.11603118 0.15450442 0.27599394
00000000: 8a79 833e 0333 a0bd f2e2 a73e d042 4a3e
00000010: 1f01 833e f622 a13e 542f 4c3d 7005 243e
00000020: 2d57 b33e 2423 303e 38c5 7f3e 8969 b53e
00000030: f3da 8f3d 4f0b 833e 5b41 c43e dcbd 883e
00000040: 5ddd 8d3e 2304 0d3e a5f7 b63e 2379 8d3e
00000050: 5816 3b3e 983c 483e ea17 053e 0a3a 653e
00000060: 2009 c23e 45a2 5f3e 0bff 843e bc83 0b3d
00000070: f552 1a3e a08a 9f3e a085 7cbd 470e 4b3e
00000080: c731 7b3e 4458 513e f42c e13d 64a3 8b3e
00000090: aa61 f63d 5757 ce3e 0a10 723e 80d1 803e
000000a0: b025 3b3e fbf2 cb3e 394e 0f3e 5141 8b3e
000000b0: 0eb0 1b3e 9454 053c 5d8c 353e 5242 433e
000000c0: 3237 903e c5a1 b13e 8b67 913e 82a6 933e
000000d0: 2b0c 0d3e 92a1 c73e 94ae 323e 962a 6e3e
000000e0: b67b ef3d 3931 bc3e da2c 503e 3f63 9b3e
000000f0: 5359 343e ed36 513e 385c 223e 81d9 873e
00000100: 80b5 9c3e 9206 b13e 7720 47bc 0e37 703e
00000110: 4df5 e73d 1e07 2dbd ce25 9e3e 9521 403e
00000120: 90ad 853e 333b 853e d3af 053e 90af 803e
00000130: e630 3e3e 0f0a 243e d81b a23e 1ed9 a03e
00000140: bdd7 ac3e c08b 563e c22b b73e cc76 833e
00000150: 2408 b73e 5eb3 a23e 28b5 453e 5918 bcbd
00000160: 2d73 243d e796 c43c b326 393e a533 d73d
00000170: 5bd8 ec3b 6726 b03d adf5 8f3e ef7b 523e
00000180: 6ccf df3d 921c 8a3d 9326 473e c8ef 083d
00000190: c7ee f83e 98a7 6c3e 1914 2c3e 80c9 383e
000001a0: 24b4 cf3e a0f6 393e 3f58 503e 3398 b23e
000001b0: 8bac 3b3e b09d bf3e 395d 4c3e b2f7 853e
000001c0: 151b 623e b705 553e 7c9c 6d3e b371 313e
000001d0: b050 773d e974 8c3d c5e7 4e3e ddcc 873d
000001e0: db56 b43e 98a1 433e 14f2 243e 43c1 8d3e
000001f0: 712d 933e c1a1 ed3d 6836 1e3e 144f 8d3e

bn3.running_mean f4 [128]
0.21746367 2.8794837 1.0621601 3.1831975 3.049103 0.9364169 0.8657764 2.6440156
1.1545701 0.13243361 0.64105284 0.8795362 3.309083 0.46525842 1.1525602 0.20775115
0.33129528 1.4069176 0.30892602 1.0714918 0.8312096 0.4488706 0.29941 1.1338086
2.7663624 0.28911072 0.30964124 2.0018086 0.37188417 0.24680592 9.103486 4.2393565
0.6715985 0.9374399 0.19845946 0.09264763 0.69294 2.4440846 0.16826661 0.20831653
6.2911167 1.4688618 2.3453107 0.94811964 1.03217 6e-45 0.22224428 1.2693446
0.49600542 1.4010632 1.0996261 2.014193 0.7889468 2.1845088 8.093474 2.4315007
0.71282727 3.806934 0.17696576 0.4189504 1.2685205 3.638801 1.134188 2.8639593
1.393546 0.5091593 6e-45 0.27891335 0.27193606 0.28591722 0.60244447 1.2464504
0.73020506 0.24509422 4.6041493 0.2763678 0.08568413 0.17101154 1.0270212 1.1673441
3.8023703 0.37584516 2.7216163 2.0400844 1.0243881 1.8280102 2.9984775 1.6063821
1.8799955 6.5668674 1.6352665 1.768433 0.48475718 1.9478053 0.66049045 0.126006
1.4038393 2.5784273 3.6446512 0.9547735 0.76643884 0.44538122 1.9468995 1.1535863
3.0738127 0.11622016 0.21496518 0.4529809 1.819266 0.36833218 0.5701583 0.7194624
3.7843356 0.7707904 0.42395526 0.52364856 1.2480185 14.929362 0.26045206 1.9833827
0.600004 0.7322084 0.57376146 1.3247756 2.290712 0.7603334 0.45175582 0.2595425
00000000: ccae 5e3e 7649 3840 ddf4 873f 82b9 4b40
00000010: 8124 4340 05b9 6f3f 86a3 5d3f 8d37 2940
00000020: f4c8 933f ad9c 073e 0a1c 243f 4929 613f
00000030: 04c8 5340 5a36 ee3e 1887 933f b8bc 543e
00000040: 899f a93e e015 b43f 8d2b 9e3e a526 893f
00000050: 27ca 543f 5ed2 e53e 444c 993e a420 913f
00000060: 150c 3140 5206 943e 4c89 9e3e a21d 0040
00000070: 9a67 be3e b1ba 7c3e e1a7 1141 cfa8 8740
00000080: e1ed 2b3f 10fc 6f3f f538 4b3e 0abe bd3d
00000090: 8464 313f e26b 1c40 154e 2c3e ee50 553e
000000a0: d450 c940 aa03 bc3f 9219 1640 f8b7 723f
000000b0: 261e 843f 0400 0000 0194 633e e279 a23f
000000c0: 6cf4 fd3e 0a56 b33f 8cc0 8c3f 8ae8 0040
000000d0: 6bf8 493f fece 0b40 df7e 0141 b59d 1b40
000000e0: d97b 363f cfa4 7340 8336 353e ab80 d63e
000000f0: e15e a23f 1ee2 6840 132d 913f 1c4b 3740
00000100: b75f b23f 4458 023f 0400 0000 bbcd 8e3e
00000110: 343b 8b3e be63 923e cd39 1a3f b08b 9f3f
00000120: b8ee 3a3f fbf9 7a3e 3155 9340 1580 8d3e
00000130: 297b af3d a61d 2f3e 6e75 833f 886b 953f
00000140: 095a 7340 c76e c03e f62e 2e40 be90 0240
00000150: 261f 833f 3dfc e93f 0ee7 3f40 ee9d cd3f
00000160: b1a3 f03f c723 d240 6a50 d13f 035c e23f
00000170: 1832 f83e af51 f93f e715 293f b807 013e
00000180: 02b1 b33f f404 2540 f741 6940 096c 743f
00000190: 5635 443f 0209 e43e 0134 f93f b7a8 933f
000001a0: 59b9 4440 d604 ee3d d51f 5c3e 1ded e73e
000001b0: b5dd e83f 0996 bc3e e5f5 113f b02e 383f
000001c0: 8e32 7240 8552 453f aa10 d93e d50d 063f
000001d0: 12bf 9f3f abde 6e41 f959 853e 7cdf fd3f
000001e0: dd99 193f 0272 3b3f 08e2 123f 3f92 a93f
000001f0: 079b 1240 36a5 423f 8a4c e73e c1e2 843e

bn3.running_var f4 [128]
1.345308 21.130852 12.972582 30.281195 38.495064 9.144899 4.607926 19.441807
11.806441 0.9048484 6.6882915 13.693013 20.04283 2.8685682 9.925127 2.0614164
2.0408537 8.788293 3.176737 9.914675 7.554502 2.6718624 2.3580453 7.6776013
37.64208 2.1618514 1.941724 14.668659 1.7554833 1.9656906 95.97855 34.20877
7.5160065 7.698129 0.638698 0.82659113 4.913233 25.500702 1.1543901 0.9723512
51.740803 13.217781 16.639156 5.9737105 7.329809 6e-45 1.5129648 11.939286
2.8659675 15.093834 17.499563 24.097166 4.699778 33.379574 61.421844 19.77359
5.211085 47.938644 1.5348911 4.7698264 9.0895605 23.6934 8.034773 26.0484
12.123943 4.8460364 6e-45 2.3540244 1.2245686 1.2220491 9.303146 14.416042
6.2745795 2.6651084 42.049683 3.182991 0.46772572 1.124526 9.842047 13.104816
39.755142 3.521279 27.417887 17.948706 14.027983 13.75856 23.310917 10.267612
12.954639 54.358997 9.558515 12.884381 2.3680558 11.760812 8.224483 0.67628676
12.164963 18.024326 23.3967 4.938965 7.0226836 2.9262664 15.745565 9.358786
59.227318 0.58606714 1.8412131 4.145031 25.285322 4.038123 4.826925 4.566184
32.10022 6.2656026 3.6246734 4.24555 9.434664 119.551384 2.1097572 14.761338
6.6937895 5.6689463 2.7513633 9.60969 21.263206 5.9733844 2.8394747 2.1396358
00000000: 0d33 ac3f fc0b a941 b28f 4f41 e33f f241
00000010: f2fa 1942 8251 1241 2174 9340 d288 9b41
00000020: 2fe7 3c41 25a4 673f 7c06 d640 9516 5b41
00000030: b757 a041 9f96 3740 52cd 1e41 3fee 0340
00000040: 599d 0240 d99c 0c41 a94f 4b40 82a2 1e41
00000050: 7bbe f140 cbff 2a40 37ea 1640 e9ae f540
00000060: 7d91 1642 c65b 0a40 698a f83f d4b2 6a41
00000070: adb3 e03f c09b fb3f 05f5 bf42 c8d5 0842
00000080: 2083 f040 1357 f640 b681 233f 7a9b 533f
00000090: 3439 9d40 7001 cc41 0ec3 933f 02ec 783f
000000a0: 95f6 4e42 087c 5341 fe1c 8541 a328 bf40
000000b0: cc8d ea40 0400 0000 d5a8 c13f 5107 3f41
000000c0: 036c 3740 5880 7141 1bff 8b41 ffc6 c041
000000d0: 9564 9640 af84 0542 f8af 7542 5030 9e41
000000e0: 35c1 a640 2cc1 3f42 5077 c43f 6ba2 9840
000000f0: d76e 1141 158c bd41 6e8e 0041 2063 d041
00000100: acfb 4141 bb12 9b40 0400 0000 56a8 1640
00000110: aabe 9c3f 1b6c 9c3f b0d9 1441 1ca8 6641
00000120: 5bc9 c840 2391 2a40 e032 2842 20b6 4b40
00000130: bf79 ef3e 78f0 8f3f 0679 1d41 54ad 5141
00000140: 4405 1f42 a35c 6140 d557 db41 f396 8f41
00000150: 9e72 6041 1023 5c41 c27c ba41 2448 2441
00000160: 3446 4f41 9d6f 5942 adef 1841 6d26 4e41
00000170: 3a8e 1740 492c 3c41 7b97 0341 2121 2d3f
00000180: b0a3 4241 d231 9041 712c bb41 000c 9e40
00000190: d3b9 e040 f347 3b40 d6ed 7b41 96bd 1541
000001a0: c6e8 6c42 7f08 163f dfac eb3f 18a4 8440
000001b0: 5748 ca41 4e38 8140 2b76 9a40 2e1e 9240
000001c0: a066 0042 d17f c840 a6fa 6740 8cdb 8740
000001d0: 62f4 1641 4f1a ef42 4306 0740 712e 6c41
000001e0: 8633 d640 0268 b540 5616 3040 4ac1 1941
000001f0: 0c1b aa41 f725 bf40 f4b9 3540 cbef 0840
