Report/checkpoint_critic.pth (torch_old, 89487 bytes, 9 tensors)

fcs1.weight f4 [128, 33]
00000000: dd26 843e 8e1f 66ba b2e3 d2be e7a1 d2be
00000010: 7c3a 1ebe 38bb ae3f 9339 b3bf 536a cc3d
00000020: a228 003f 8d31 a6bf e79a 9f3e 1090 d9bc
00000030: 85c4 b0be eed5 33be bea7 383e c58e 42bf
00000040: a731 9a3f fe9c 643e 2cac 27c0 3c14 7cc0
00000050: 8f65 093e bf6a 863e a647 d53e bc80 6abd
00000060: ee66 c43d eada d0be def8 453e 0032 893c
00000070: 052e 4c3f a294 0d3d 339b 42bd a4a0 27bd
00000080: cec9 fb3f 0787 883f 2bf3 bbbe 6433 a8bd
00000090: d44f fdbe 52e3 46bf d762 2940 09b0 db3e
000000a0: 17b9 d03c 1722 bdbe af54 66bf a137 073e
000000b0: 0721 b53d 5e54 973e 1916 07be 1364 ed3e
000000c0: c959 1c3f 938c 823f 3efc 60bf 213e d33f
000000d0: 6eb6 82c0 e45c abbb edaf 753d 599d a43e
000000e0: 75af 19be 82b2 68bd a876 24bd cd44 0cbf
000000f0: 7037 acbd fcb5 48bf df41 b1bd 99b6 0f3e
00000100: b8f2 adbd 221a 26bf 5fa6 f4be 1d39 863e
00000110: 1a94 c53e 9e92 ad3f 98a6 2b3f 6d52 5d3f
00000120: 0b69 f43f 7653 35bf 4955 9bbe 487c d6be
00000130: 8114 44be e2b1 923d 2c0a 903a 8ab8 0dbe
00000140: b293 493e 46e9 fabe e2e3 cc3f b4ea c1bf
00000150: 90ab f6be 6375 cd3e bf6f 2b3e 562e 133f
00000160: 9cf1 e5bc 142c 23bf d9fa 933d d36c 0abe
00000170: b8ad cc3e a732 c73f 48eb 333f 48ea 423c
00000180: 91ec d4bf 70c2 023c 37c5 3140 ff1c 9e3e
00000190: 6d79 df3c c8a9 8d3f a828 903e 1ea3 49be
000001a0: 76ed 563e d6b3 9cbe 5b5d e83d 98ca 2b3e
000001b0: d82a d2bc 8137 2bbc ac11 a93b 11ae 82bd
000001c0: 3386 8cbe 3867 813c 38d6 dabf 6f6c 19bf
000001d0: 82f9 59be 3aa8 c4bd 43ca 383e b749 8dba
000001e0: 72da c03d d426 a43c e54f 12bd e12a 873c
000001f0: 4e32 6ebe ca8f 803d 3821 3e3e cc38 703f
00000200: d010 8e3b dbb9 0bbe e74d a83d 241c 4d3e
00000210: 2c6d 4dbf b7a4 293f da8d 82bd 5f61 80be
00000220: 7734 cbbd 55fa 813f 5e25 05be eb45 8c3d
00000230: 853c 053f 6576 823e d857 77be fdb0 073e
00000240: 81f0 653d 62d1 683f 4f75 debe be7b 113f
00000250: 82d8 953f 4570 56bf 00bb ef3d 07e4 ec3e
00000260: 5bd2 dc3a 5db4 a1bd 9cdf 313d 155c a93e
00000270: 2592 e4bb 1dfd 973e 0d7f 26be c206 8e3f
00000280: 17a9 33bf 0bb2 4dbd 327a a1bf 23e5 b23d
00000290: 4975 6040 73fe 1e3f 0ddf 3b3f 0601 94be
000002a0: 235c 3340 4119 1040 5557 3f3e 28df 0340
000002b0: 25a8 2cbf 8dd3 fa3e 3c6d 9d3f c1d8 483e
000002c0: dc29 103f 4f75 85bd 9354 1dbf c3ce 263f
000002d0: 5152 9d3e 1bbc d73f 1e46 0c40 a603 2bbd
000002e0: 0877 773e 91cc 903e 63c3 22bf fc8f ec3e
000002f0: 61ae 633e a75f 0dbd 32a5 8b3e bffd 013f
00000300: e3eb eabe bd3d ff3d c295 163d 865e 1f3f
00000310: 4ea1 e0bc 0404 5abf bacd 933d 0ae7 10bd
00000320: 8086 9abd 9512 fc3e eaa7 46bf b5c6 1dbe
00000330: 9bd1 26bf 1482 e7bd 99ac 41be 248f ad3e
00000340: 7ee4 fdbd 6a0c 87bd 730b 88bc 32aa 813d
00000350: cefb d03d 5571 dc3c 6516 22bf c38c ff3e
00000360: cb79 11bf d11b a7be a20a 003d facf 963d
00000370: c629 6d3d a628 fb3d 2ffb 0e3d c8ea 0f3c
00000380: e227 1a3f e976 423f b97a 123e 806a 32bd
00000390: b8ef 57bf 280e 30bd ec77 e540 9d1c 513f
000003a0: 111f ca3f 279a 1dbe b85b 96be d5bb 883d
000003b0: 855c f43e e03c ad3e 877e 13bf 76d9 6f3e
000003c0: 90af 13be d13b 31bd 4b70 5e3f 3f2f 623d
000003d0: 17cb 01bf dd60 01bf 8f42 8d3e 486a 0540
000003e0: 8f08 3cc0 a53e 0a3f 0885 9cbd 4ba9 93bd
000003f0: 6eff 80bd 6ef5 1cbe ef7e ab3e 4e33 ccbe
0.258109 -0.0008778506 -0.41189343 -0.41139147 -0.15451998 1.3650885 -1.4001945 0.09981217
0.50062 -1.2983872 0.3117287 -0.026557952 -0.34524933 -0.17562076 0.18032739 -0.759991
1.2046403 0.22325513 -2.6198835 -3.938735 0.13417648 0.26253316 0.41656226 -0.057251677
0.09589945 -0.40792018 0.19333217 0.016747475 0.7975772 0.034565575 -0.04751129 -0.040924683
1.9670961 1.0666207 -0.3670896 -0.08212927 -0.49474967 -0.77690613 2.6466577 0.42907742
0.025478883 -0.3694007 -0.89972967 0.13204814 0.0884419 0.29556555 -0.13192023 0.46365413
0.610745 1.019915 -0.8788489 1.6503335 -4.0847692 -0.0052295793 0.05998223 0.32151297
-0.15008338 -0.056810863 -0.040152222 -0.5479248 -0.08409011 -0.78402686 -0.08655142 0.14034499
-0.084935606 -0.64883626 -0.4778318 0.2621545 0.38589555 1.3560369 0.67051077 0.86453897
1.9094557 -0.70830476 -0.30338505 -0.41891694 -0.19148447 0.07162835 0.001098936 -0.13839927
0.19685248 -0.49006099 1.6007044 -1.5149751 -0.48177767 0.4012862 0.16741847 0.5749258
-0.02806931 -0.6373913 0.0722558 -0.13518076 0.39976287 1.5562333 0.70280886 0.011896677
-1.6634694 0.007980928 2.777662 0.30881497 0.02727958 1.1067438 0.28156018 -0.1969113
0.20989022 -0.30605954 0.11345931 0.16776502 -0.025655195 -0.010450245 0.0051595774 -0.06380857
-0.27446136 0.015796289 -1.7096624 -0.5993108 -0.21286586 -0.09602399 0.18045907 -0.0010779415
0.09416665 0.020038046 -0.035720725 0.016499938 -0.23261377 0.062774256 0.1856736 0.93836665
0.0043355003 -0.13645117 0.08217984 0.20030266 -0.8024471 0.6626696 -0.06374712 -0.25074288
-0.09922116 1.015452 -0.13002536 0.06849273 0.5204547 0.25480953 -0.24154603 0.1325111
0.056137566 0.9094449 -0.43448874 0.5682944 1.1706698 -0.8376506 0.11705589 0.4626772
0.0016847359 -0.0789573 0.04342614 0.33078066 -0.0069754296 0.29685298 -0.16259404 1.1095812
-0.70179886 -0.050218623 -1.2615416 0.087351106 3.5071585 0.6210701 0.73387223 -0.2890703
2.8024986 2.2515414 0.18685658 2.0604954 -0.6744407 0.48989525 1.2298961 0.19613935
0.5631387 -0.065165155 -0.61457175 0.65159243 0.30726865 1.685428 2.1917796 -0.041751526
0.241665 0.28281072 -0.63579386 0.462036 0.22234489 -0.03451505 0.27274472 0.5077781
-0.45883092 0.124629475 0.036763914 0.62253606 -0.027420666 -0.8516238 0.072169736 -0.035376586
-0.07545185 0.49232927 -0.77599967 -0.15407832 -0.6516358 -0.11304107 -0.18913497 0.3389827
-0.12397097 -0.06594165 -0.016607022 0.0633129 0.10204278 0.02690951 -0.6331542 0.4991208
-0.56826466 -0.3263841 0.03126014 0.07363887 0.057901166 0.122636124 0.034907516 0.008784004
0.60217106 0.7596269 0.14304627 -0.043558598 -0.84350157 -0.04298225 7.170889 0.81684285
1.5790731 -0.15390836 -0.2936685 0.06676451 0.47726837 0.33835506 -0.5761494 0.23422799
-0.1442244 -0.043269936 0.86890095 0.05522084 -0.50700516 -0.50538427 0.27589843 2.084612
-2.9380224 0.5400184 -0.07642561 -0.072100244 -0.06298719 -0.15327999 0.3349528 -0.39882892

fcs1.bias f4 [128]
00000000: 60eb 11be a75e 863d 9bf1 e0bf 1357 dcbd
00000010: 279f adbf bb78 ce3e 9a83 37bf 6180 a7be
00000020: b0a2 c2bf f985 6cbf 4025 e7be a0b6 7bbf
00000030: fb5e 5abf 933f 9bbe 15a4 b1bf be65 efbe
00000040: 6d96 61bf 7b66 67be c9ba 8bbf 2e44 d6bd
00000050: ff1d 90bf 75cd b13e 4f4b e2be 9bbc 2bbf
00000060: 91c3 6cbe 4988 abbf 4d2a 523f 29b5 30bf
00000070: 0f6c c6bf bb07 a6be 6a93 cabe 6e90 d2be
00000080: dc48 f2bf 4ce0 743e d55e 93bd 643e c4bd
00000090: d90b 64bf 28a6 78bf 3a18 48bd c45e 69bf
000000a0: bd68 2c3f ca85 17bf e83c 41bf 4977 d13c
000000b0: a0c9 a7bf b048 fd3c e497 8bbf 5a07 e0be
000000c0: 0640 d7bd 6bdf 213d f7a3 62bf 3fd9 8abf
000000d0: 4f8d c2be c9eb 2fbf 85dc 51bf 1016 ffbf
000000e0: 4c26 d4bf c144 12bf 4945 bdbf 6d9d a1bf
000000f0: d554 3dbf 05e1 6cbf 6e0a 3cbe 4dbf 91bf
00000100: f013 41bf df92 273f 6c3e 98bf 00d5 8cbe
00000110: a985 65bf 8eac b6be 4745 ba3d 68bd 82bf
00000120: 2ed7 abbd 2d70 923e b7c9 9ebf dc02 91bf
00000130: 2cac abbd e994 94bd 1db4 a9bf 19d7 85bf
00000140: 22f6 27be 0550 b1bf 4eb3 4abf f3dd b7bf
00000150: b1b1 52bf 5b62 84be 447d 95bf c8eb 5fbf
00000160: a921 4dbf 41f5 54bd df5d f7be 0073 4abf
00000170: 1a20 9abf 01a5 f1be a706 db3d a5a2 adbe
00000180: 37c5 f4be 5818 b13e 6e2a 28be b0b7 6ebf
00000190: 035c 203f 5859 88bf a824 6ebf 0833 0a3d
000001a0: fa6b 55bf 0416 f23d 9f99 f2bf 24ac 73bf
000001b0: 74d0 803f 5078 823e 401e f2be cc8a 9c3e
000001c0: 5a41 c8be c631 b4bf 9cdc 0ebf d85b 8ebe
000001d0: c263 07bf b2c4 46bf 24da 3abf b8cb ca3c
000001e0: c4f9 cebf b7fa 1cbf dca7 bbbf fa82 81be
000001f0: 2046 cbbe 2ca3 95bf 41aa 1ebd 0892 0fbe
-0.14249945 0.06561022 -1.7573732 -0.107587956 -1.3564194 0.40326485 -0.71685183 -0.32715133
-1.5205898 -0.92391926 -0.45145607 -0.9832554 -0.8530118 -0.3032194 -1.3878199 -0.4675731
-0.88120157 -0.22597687 -1.0916377 -0.10462223 -1.1259154 0.34727064 -0.4419808 -0.67084664
-0.23121478 -1.3400966 0.82095796 -0.6902643 -1.5501727 -0.32427773 -0.39565593 -0.41125816
-1.8928485 0.23913687 -0.07195822 -0.095822126 -0.8908058 -0.97128534 -0.04885123 -0.91160226
0.6734732 -0.5918852 -0.7548356 0.025569575 -1.3108406 0.03091845 -1.0905728 -0.4375561
-0.105102584 0.03951971 -0.8853144 -1.0847548 -0.37998435 -0.68719155 -0.8197711 -1.9928608
-1.6574187 -0.5713616 -1.4786769 -1.2626168 -0.7395757 -0.9253085 -0.18363354 -1.1386505
-0.7542105 0.6545848 -1.189405 -0.27506256 -0.89657074 -0.35678524 0.09095245 -1.0214052
-0.08390652 0.28601208 -1.2405308 -1.1328998 -0.083824486 -0.07254965 -1.3258091 -1.0456268
-0.16402486 -1.3852545 -0.7917985 -1.4364609 -0.82302386 -0.2585629 -1.1678853 -0.8746915
-0.80129486 -0.051991705 -0.48313805 -0.79081726 -1.2041047 -0.471962 0.10694628 -0.3391315
-0.47806713 0.34588885 -0.16422436 -0.93249035 0.626404 -1.0652266 -0.93024683 0.033740073
-0.83367884 0.118206054 -1.8953131 -0.9518454 1.0063615 0.25482416 -0.47288704 0.30574644
-0.3911236 -1.407769 -0.55805373 -0.27804446 -0.52886593 -0.77643883 -0.72989106 0.024755344
-1.6169972 -0.6132006 -1.4660602 -0.2529524 -0.3970194 -1.1690421 -0.038736586 -0.1402055

bn.weight f4 [128]
00000000: 8671 493e c7de 833e f622 d13d de11 c73e
00000010: aaae b13e 5767 213e da85 d93e 346e 3d3e
00000020: 94a5 2e3e e8c2 623e 588e f03d 2379 463e
00000030: 07da 9bbe 890a 133e a911 3f3e da53 353e
00000040: 9611 223e 45fd 493e b160 0cbe 02ce 9c3e
00000050: 1424 113e 1213 743e 1fe4 a93e 23b3 833e
00000060: 9461 853e 8389 373e db01 b73e ed88 8b3e
00000070: 8892 643e cd77 5c3e 4ed5 193e 5cce bb3e
00000080: c4e3 7b3e b912 993e bf49 5e3e a3bf ef3e
00000090: 4889 563e 4a8d 3e3e be3f 623e 3193 1a3e
000000a0: 19b1 a53e 63e0 1a3e 3957 073e d0ad 893e
000000b0: 3ddb 6e3e 958d 3f3e 86e4 023e 31b8 0d3e
000000c0: 0a34 023f bf1e 4e3e 50be 3e3e 9027 403e
000000d0: c359 3d3e 1b35 e43d 0ca4 a23e c8a7 c23d
000000e0: d35e 553e 1453 db3e 648a 2d3e 38b2 5b3e
000000f0: f1f5 2f3e 5da5 6c3e dd4d 363e 3553 973e
00000100: cfc4 493e aa8e 7f3e 1a71 263e f794 533e
00000110: 4047 0b3e ee8d b83e 53fc 2b3e 3419 493e
00000120: 35b1 143e 53e3 4e3e 45f0 203e 4ee7 3c3e
00000130: b8ff 4b3e 7c80 2a3e c2bd 4f3e 42cb 543e
00000140: c206 a13e bfba 703e e266 6b3e 9ad5 4b3e
00000150: 9b88 f63d 1db4 b33e afe1 783e 6319 6c3e
00000160: 5470 4d3e 1872 b23e 54eb 3b3e 7ce5 1f3e
00000170: 38cf 263e 7174 693e 449f 623e a324 793e
00000180: 1937 933e 268e 3c3e 52b4 483e 1c21 303e
00000190: f7b9 0d3e ae7c 413e b5e4 293e 0e9a 4d3e
000001a0: 2253 033e 529d 9f3e 5cb7 833e ef64 1c3e
000001b0: 3338 f53d 6121 913e 5488 193e b312 793e
000001c0: 23fe 163e 96db 2a3e b512 2a3e b200 673e
000001d0: 99d4 0f3e 6c5c 373e 8c1c 3d3e 8a73 4d3e
000001e0: b505 6f3e 7ab8 0e3e 5637 2d3e ccc0 8b3e
000001f0: 28ec b03e 72a6 143e 2989 b03e 0b8b e13d
0.19672212 0.25755903 0.102117464 0.3888082 0.3470357 0.15762077 0.42484933 0.1849907
0.1705535 0.22144663 0.117459 0.19382147 -0.3043978 0.14359488 0.1865908 0.17707768
0.15827021 0.19725521 -0.1370876 0.3062592 0.14173919 0.238354 0.33181855 0.25722608
0.2605101 0.1792355 0.35743603 0.27252904 0.22321522 0.21530075 0.15022776 0.36680877
0.24598604 0.29897097 0.2170782 0.46825895 0.20950806 0.18608585 0.22094628 0.15095212
0.32361677 0.15124659 0.13216867 0.2689042 0.2332582 0.18706353 0.12782487 0.13839795
0.50860655 0.20128916 0.18627286 0.18765092 0.18491273 0.111429416 0.31765783 0.09504658
0.20836954 0.4283682 0.16947323 0.21454704 0.17183663 0.23109956 0.1780314 0.2955567
0.19703983 0.24956766 0.16254082 0.20662294 0.13601398 0.36045784 0.16795473 0.1963852
0.14520724 0.20203905 0.15716656 0.1844761 0.19921768 0.16650575 0.2028723 0.20780662
0.31450468 0.23508738 0.22988465 0.19905701 0.12037774 0.35098353 0.24304841 0.2305656
0.20062381 0.34852672 0.1835149 0.15614885 0.16289985 0.22798325 0.22131068 0.24330382
0.28752974 0.184136 0.19600037 0.1720013 0.13840471 0.18895218 0.16591151 0.20078298
0.12824681 0.31174713 0.2572583 0.15272878 0.1197361 0.2834578 0.14993411 0.2432354
0.14745383 0.16685328 0.16608699 0.22558859 0.14045943 0.1790635 0.18467921 0.20063606
0.23342021 0.1393756 0.1691564 0.2729553 0.34555173 0.14516619 0.34479645 0.110128485

bn.bias f4 [128]
00000000: ecd1 323d 6da9 fb3d 1f5c 843c 0a7d 623d
00000010: 7660 7d3d 14e5 c33c a719 053e 5b85 2d3d
00000020: 2e05 863d 7202 f13d 04c6 313d 439b ed3c
00000030: 531f 4cbd 9f68 023d 58ec f63c dbbe aa3d
00000040: 4f64 663d abbd aa3d fd36 8dbc 0eb0 9d3d
00000050: a8c5 0f3d 62b9 dd3d f90e a53d a3dc 0f3d
00000060: ca4a 853c d891 c83d ad73 b73d b289 9d3d
00000070: 0e70 51bd 7d9c eb3c 8ed5 253d 789e b23d
00000080: 8540 fa3d 9a18 b93d 4d01 353d 2fa3 f1bd
00000090: 0eeb 6abb 16ef 5b3d 2bb9 653d 38b9 8e3c
000000a0: d04f cb3c cbea 383d 6179 4a3d c238 6dbc
000000b0: 9ca6 a33d 0126 053e 280a 963d 7ad7 143d
000000c0: 0149 a63e 72c1 293c 075a df3c a3d7 fa3c
000000d0: 7040 223e c3bf be3c 7efa 393d 146f fc3c
000000e0: bf2f 113c 163f 823e bf33 9a3c 6d26 db3d
000000f0: 5fe9 983c c3dc 883d 8312 ca3c 62a8 cd3d
00000100: eab7 213d d229 c43c 44c9 bc3c a5da 4a3d
00000110: 7d9f 193d b42f 573e 2f9c 4b3c 7ad6 553d
00000120: cd0d 423d feab 90bb 97ec 863d d840 223d
00000130: 2d18 a83c dbff 2e3d b670 b53d 52a5 9e3d
00000140: 24aa a53c 295b ca3d e347 863d ed68 433d
00000150: c0c9 9e3d a36d ee3c 08ff e93d 7034 803d
00000160: 6c91 c23c 115a 763d 7856 8d3b e395 0d3c
00000170: df4f ab3c 935c 943d 5a2b 7c3d 0448 a23d
00000180: e529 c73d 705e c5bc aff4 e03c 8bca d43c
00000190: 56d5 813b 383c 443d 84d3 683d 1664 f43c
000001a0: c689 153d 29f7 47bb 7231 8e3d 3df0 403c
000001b0: ef88 a83c a13d 95bb f2f5 0f3d 372e 1e3d
000001c0: e4a6 c8bb 99db cd3c 2721 de3c e7be 17bd
000001d0: 9c49 ab3d ad0a 1ebd f798 843d 7781 5d3d
000001e0: 5144 b93d 4e6d 303d 304a 3f3d 371f e13c
000001f0: 12c1 bb3d 8f12 5c3d c580 d73d 74c0 d9bc
0.04365723 0.12288175 0.016157208 0.055295028 0.06185957 0.023912944 0.12998067 0.042363506
0.06543957 0.117680445 0.043401733 0.029004699 -0.04983456 0.031838056 0.030141994 0.08337184
0.056248005 0.083369575 -0.017238135 0.076995954 0.03510061 0.108263746 0.080594964 0.035122525
0.016271014 0.097934425 0.0895761 0.07692279 -0.051132254 0.028761143 0.040486865 0.08721632
0.122193374 0.090378955 0.044190694 -0.11798703 -0.003584567 0.053694807 0.056084793 0.017422304
0.024818331 0.04514579 0.049432162 -0.014478864 0.079907626 0.13002779 0.07326156 0.036338307
0.32477573 0.010361062 0.027264608 0.030620402 0.15844893 0.023284798 0.045404904 0.030814685
0.008861481 0.25438756 0.018823503 0.107006885 0.018665968 0.06682732 0.02466703 0.10041882
0.039482035 0.023945723 0.02304519 0.049524922 0.037505616 0.21014291 0.012427374 0.052206494
0.047376443 -0.0044150343 0.06588095 0.03961262 0.02051934 0.04272447 0.088593885 0.07746376
0.020222731 0.09880669 0.0655668 0.047707487 0.077533245 0.029105013 0.114255965 0.06260002
0.023750983 0.060144488 0.0043132864 0.008641693 0.020912109 0.0724422 0.06156478 0.07923892
0.097247876 -0.024092883 0.027460424 0.025975486 0.003962199 0.04790899 0.056842342 0.029832881
0.036508344 -0.003051231 0.06943025 0.011776027 0.020573108 -0.004554466 0.03514666 0.038618293
-0.0061234105 0.025129126 0.027115418 -0.037047293 0.08363649 -0.0385844 0.06474488 0.054078545
0.090462334 0.04307299 0.04670161 0.027480705 0.091676846 0.053728636 0.10522608 -0.026581027

bn.running_mean f4 [128]
00000000: 5e0b d43f 8606 0240 9db3 7f3e e6e2 4e3f
00000010: 400b 643e aba6 d53f 126a b53f c60c b83e
00000020: c86c 393f 80f9 3a3f 963b 3a3f 81b4 013f
00000030: 3359 2f3f eaad cf3f 6825 3b3f 6b63 3c3f
00000040: f3ce 023f 4cd2 f03f 6d89 043e ae03 0d3f
00000050: 2d7a 163f be9f 5940 74ae 9c3e e5b3 033f
00000060: 9b73 073f ae45 0f40 fc82 4f40 7532 213f
00000070: d093 e33e 3c60 b53f f8e9 2240 95b1 273f
00000080: 533e fa3e cac5 1f3f 769f 8f3f e2bd 483f
00000090: cce3 943f 0724 0f3f ba05 9a3f 763c 453f
000000a0: 8356 5640 d6a8 a63f f3e2 4e3f 45ab f73e
000000b0: 68a2 493f 5c33 773f 2d55 813f 3b01 6d3f
000000c0: 62c0 e33f 3c72 943f acd5 ae3e acb9 5b3f
000000d0: 3f2b a63f 3c30 c63e 75a0 383f 5877 bf3e
000000e0: 5e40 213f 3040 933f d7bb 503f fec0 3c3f
000000f0: a0ff 073f bbed 943f 0acd 1c3f 4692 903f
00000100: 0a9c b43e ccd9 ee3f 2634 d23e 080f 853f
00000110: dde7 273f a383 dd3f a5f7 f93f 1b92 8d3e
00000120: 62ab bd3f f5be e43f 886a 373f 335f 6e3e
00000130: 7edc 2740 b940 143f affa 263f 6b7b 8a3f
00000140: 2bfb 0c3f a355 203f 081b 093f 65d0 1a3f
00000150: 066d 923f 1065 403f 9edc 643f f28c 853e
00000160: 6c5a 883f 7943 d33f d452 0d3f d787 5c3f
00000170: 90d4 da3f 83da b03f b6da a13f d9ef ed3e
00000180: 46cd 5140 9995 bc3e 9ebf dd3f 8986 933e
00000190: dbbf c03e 1bf4 1a3f 73b5 9b3e b545 1d3f
000001a0: fb20 a43f 0f1d 103f 31d7 9b3e d452 6f3f
000001b0: af3e 1240 9894 b23f 5c18 3c3e c9e9 193f
000001c0: c24e bc3f 1f66 ad3e d921 733e fbe1 693f
000001d0: 91fc d23f 5d9b ad3f 2b10 1c40 3cb5 233f
000001e0: 3900 f13e b447 633f 8486 873e 8eec 113f
000001f0: 9f3f 803f 653f dd3f 96f9 813f 49e9 843e
1.6565969 2.0316482 0.24970861 0.8081497 0.22269917 1.6691488 1.4172995 0.35947245
0.7243161 0.73036957 0.7274717 0.5066605 0.6849548 1.6224949 0.7310395 0.735892
0.5109703 1.8814178 0.12943049 0.5508374 0.58780175 3.400375 0.30601847 0.5144637
0.52910775 2.238628 3.2423697 0.62967616 0.4444871 1.4169993 2.5455303 0.65505344
0.48875675 0.6241118 1.1220539 0.7841474 1.1632018 0.5591435 1.2032998 0.7704538
3.3490303 1.3020275 0.8081505 0.48372856 0.7876344 0.96562743 1.0104119 0.9258
1.7793086 1.1597362 0.34147394 0.8583019 1.2981948 0.38708675 0.7211984 0.3739574
0.6298884 1.1503963 0.8153662 0.7373198 0.5312443 1.163505 0.61250365 1.1294639
0.35275298 1.8660216 0.4105541 1.0395212 0.6558817 1.7305797 1.95287 0.27650532
1.4817927 1.7870775 0.7164693 0.23278503 2.6228328 0.5791126 0.6522626 1.0818914
0.5507075 0.6263067 0.5355687 0.60474235 1.1439521 0.7515421 0.89399135 0.26084095
1.0652595 1.6504966 0.5520451 0.86144775 1.7096119 1.3816684 1.264487 0.46472052
3.278154 0.36832884 1.7324102 0.2881358 0.37646374 0.60528725 0.30411872 0.6143449
1.2822565 0.5629434 0.30437616 0.9348576 2.285076 1.3951597 0.18368667 0.6012235
1.4711535 0.33866975 0.2374338 0.91360444 1.6483327 1.3563038 2.4384868 0.63948417
0.47070482 0.88781285 0.26469815 0.5700158 1.0019416 1.7284971 1.0154293 0.25959232

bn.running_var f4 [128]
00000000: 2602 a540 c2a5 ca40 726a 9f3f 464d 1940
00000010: e17f 7b3f 6a00 af40 56f7 cf40 814c c53f
00000020: 0476 0340 87cb 1640 dc8e 6440 88e5 c73f
00000030: ef5e 3640 78e6 b240 1692 0440 4bc8 1840
00000040: dc07 fe3f 085c 5240 e390 ca3e 283e e63f
00000050: 1d53 a03f b814 3641 b7bf cb3f ef3e 1a40
00000060: b10c 3340 63ab 0d41 65db 6f41 1753 e13f
00000070: ee55 a43f 30e9 b740 0081 8f41 fda7 f63f
00000080: 04b0 d33f c988 7840 2571 b540 b1a9 8740
00000090: aabd 3140 2d8f 0240 3801 8140 13e8 0340
000000a0: 7c58 4741 daaa 5140 f4c4 6040 8073 b43f
000000b0: d4eb 3f40 eae5 6e40 c68f 6440 96e2 2640
000000c0: 20bf fd40 c8c1 5b40 7fb7 673f da0e f13f
000000d0: f8e7 9e40 fa9e a83f 195b ff3f 0bb0 893f
000000e0: c9b0 2f40 a7a9 a640 e30c 2040 143a 4540
000000f0: 7127 b63f 7343 6940 c777 1340 e7b3 8440
00000100: 4125 993f 07fe 9140 7dcf e03f a824 a440
00000110: 24c3 3c40 875a fa40 b9b3 a540 43bd 3e3f
00000120: b251 b140 4875 bd40 4e4e 0440 c24c 4d3f
00000130: 0a86 2141 4197 0840 6227 fe3f 1e3f 9040
00000140: 647b 1840 ee2d ee3f a178 1640 898b 1840
00000150: 3394 6b40 a84c 2d40 b853 5e40 d016 4b3f
00000160: 6657 3940 2195 9340 7fa9 c03f a574 4140
00000170: 0f04 0a41 521a e240 eee5 9140 77ae fa3f
00000180: 3af4 2841 fee9 9f3f 691b a340 36d6 ab3f
00000190: 4078 a03f 94b2 dd3f d6c4 583f 9e7a 0440
000001a0: 0b05 9940 5483 0a40 93ca 333f 8c71 7940
000001b0: ea30 2341 3cbe 4740 e61e 513f ef95 2740
000001c0: 872c 9640 8c17 f43f 7ecb 5e3f 8be2 6340
000001d0: 3798 de40 91d4 9140 757b 0d41 7bc3 5c40
000001e0: e839 de3f 0d06 7940 5268 223f 380b 5140
000001f0: f133 4b40 4ea4 0241 e02d a940 fefe fa3f
5.1565123 6.332734 1.245436 2.3953414 0.98242 5.4688005 6.4989424 1.5413972
2.054078 2.3561723 3.5712194 1.5616922 2.8495443 5.5906334 2.0714164 2.387225
1.9846148 3.2868671 0.39563665 1.7987719 1.2525364 11.380058 1.5917882 2.4100912
2.7976496 8.854342 14.991063 1.7603482 1.2838724 5.7472153 17.937988 1.9270016
1.6538091 3.8833487 5.6700616 4.2394643 2.7772012 2.0399888 4.031399 2.0610397
12.459103 3.276053 3.512021 1.4097748 2.9987688 3.7327828 3.5712752 2.6075797
7.9295807 3.4337025 0.9051437 1.8832657 4.9658165 1.3173516 1.9949676 1.0756849
2.745165 5.2082095 2.5007865 3.0816698 1.4230787 3.6447418 2.3041856 4.1469607
1.1964494 4.562259 1.756332 5.1294746 2.9494104 7.8235507 5.178189 0.7450754
5.5412226 5.9205666 2.0672793 0.8019525 10.095224 2.1342318 1.9855769 4.5077047
2.3825312 1.8607767 2.3511126 2.3835166 3.6809204 2.7078037 3.4738598 0.79331684
2.8959594 4.611954 1.5051726 3.0227444 8.625991 7.065713 4.5593176 1.9584492
10.559626 1.2493284 5.097096 1.3424747 1.2536697 1.7320123 0.8467535 2.069984
4.7818656 2.1642656 0.7023098 3.8975554 10.199442 3.120986 0.8168777 2.6185262
4.6929355 1.9069686 0.87029254 3.560702 6.956081 4.557198 8.842641 3.4494312
1.7361422 3.8909943 0.6344043 3.2663097 3.1750453 8.165113 5.28685 1.9609067

fc2.weight f4 [128, 132]
00000000: 81b4 be3d 4a3c b8bd bc28 8c3d 4468 c7bc
00000010: dd59 373d 2f03 9fbd e484 d2bd 055a 67bd
00000020: f801 ebbd 5084 d2bd b11c 3abe 9801 57bd
00000030: 4662 6f3d 4b19 233e fb2a 55be ec43 f0bd
00000040: 0619 9f3a 1426 4b3d aa12 27ba 9dff 1ebd
00000050: c852 3d3a fb6d 91bc d6a3 1ebe 913b cdbd
00000060: 845e 4fbd a624 3dbd 366f 1bbc ab1c 54bd
00000070: 2dde a9bd 2ee1 67be 3447 8abd ca07 1ebc
00000080: 3176 81bc 2457 b5bd 16a0 503a 0a4f d63d
00000090: f0db bb3d 488d d3bd 81ff cb3c ba52 0fbd
000000a0: 3828 debd 5c04 d8bd 88f6 e2bd 57e8 a5bd
000000b0: 3a2c 9dbc d0ae 79be 8993 6bbe d55d b1bd
000000c0: 6608 16be 6961 5ebd 5f5e 06bc 7849 e6bd
000000d0: 428a d6bc e246 28bd a0a7 bbba 76df 06be
000000e0: 1d6f f3bd 95ad 8f3b af8f 96bc 5e60 02be
000000f0: cf81 2ebd 9837 70bc b181 34bd 98f3 4e3d
00000100: 0f91 5cbd 07e6 a73d b4c3 17bd 30e7 bcbd
00000110: 41eb 29bd 0c6d 863b 8ff9 6f3c 0fcd a9bd
00000120: b001 85b9 99ef 64bd d239 533d d8a5 43bd
00000130: 1141 99bd 4041 32be f8d3 b7bd 09fd 2ebe
00000140: cb28 053e 7d69 97bd e572 dd3c c3be 93bd
00000150: 5cee 25bd e74b 0fbd 15ca afbb c10b f5bd
00000160: fc55 fd3d cffd ca3c 50e8 dd3c eed8 353d
00000170: 9406 ad3d 8afb 9fbd f9fe f33c 4681 5c3c
00000180: b072 81bc 33b6 2b3e c615 bb3d d2e3 e1bc
00000190: 08a0 7cbb a6ed b53c f765 b0bd ea01 36bd
000001a0: e258 92bd e75f 843c e20e 58bd 61d8 1cbe
000001b0: 66ca 543d 8e9c 663c 0e17 1d3b 3e89 adbb
000001c0: 3340 2e3d ee57 eabc cc04 8fbc d0c4 363d
000001d0: 0fb9 7b3d 5d93 8cbd 5978 643c fd89 aebd
000001e0: 9abd 883d 81b1 873d 9a45 82bd d111 7bbc
000001f0: bd6c 00bd 1811 fe3b a4de 133c b45e 89bc
00000200: 480b ac3c 7c48 a93b d584 5d3c a5ba 3bbd
00000210: 9701 c9bf 4946 05bf 2201 95bd acee 51be
00000220: f8a2 443f 789d a9bf e128 e53e 36e7 923e
00000230: 14fe 0abf d747 f3be 6d8a 5bbe 5bae f03d
00000240: 2bcc 153f 9b51 00bf f6cc aa3d 221f e23e
00000250: cc6b 87bf eee1 23bf 8790 503f eb3b 943e
00000260: c110 073e f58b 08c0 3e11 9d3d 5147 8abf
00000270: c083 643c 1897 e4bd 0bf6 8f3e 8b97 babd
00000280: 2f3d 473e 3565 023f 3d15 b8be 9ea4 18bf
00000290: 2646 253e 3987 47bf 85e1 0dbf 6e37 0cbf
000002a0: 2bdc 42be 3314 d63d f945 ff3e 0730 b3be
000002b0: 2a05 b7be e212 f13c 5f41 1fbe 9cba 4e3d
000002c0: e668 24bf 4d60 c5bd 10c7 a9be 85a2 51bf
000002d0: f76e 4b3f faa7 5d3e 264d 14be 9a08 d7be
000002e0: 5fcf 39bf 07f5 1dbf 1d95 be3e ec6c 503f
000002f0: 94d4 303f 7e19 52bf 025e 713c c3cc 913d
00000300: fc2d 1b3f c4e1 eb3e 4e98 dfba 0f0d 3dbf
00000310: c101 0fbf 3b9f 883f cbe9 dd3e 6f16 213e
00000320: 9fdc 903e 9378 29bf c0bf f7ba f2e2 b9be
00000330: 020b 4b3c f94f cdbe 6073 76be 533b b5be
00000340: 7074 853f d65f 89bf 694a a13d daaf 88bf
00000350: 28ba 1abf 98da e0be 46d8 463e 99db 293f
00000360: e7d0 3c3e d110 8d3c 22ac 423f 87f5 42bf
00000370: 95c4 c8be c4ff 1b3e 7927 0cbf d46f 79bf
00000380: fc19 4abe 3a16 7a3e 8a50 693f 7592 8d3e
00000390: f946 313f c069 35be c13a ea3e 537e 9f3e
000003a0: 4285 b4be 8d8b ac3d e954 7dbe 50ea 433f
000003b0: 490f 7c3c d3ab 263e 1134 99be ecf4 673e
000003c0: 3a8e 10bf bfd3 9e3e 264a 8dbd d261 15be
000003d0: 8d57 dfbd 201b 8bbe 1b10 343e 7b2a 21bf
000003e0: 6c21 44be d4e6 143f 6199 8a3e 2121 1f3f
000003f0: cabd debe 6cc8 3a3f 35ce adbe 148c 02bf
0.09311772 -0.08995874 0.06843707 -0.02434171 0.044763435 -0.07764279 -0.10279253 -0.056482334
-0.11474985 -0.10279143 -0.18175007 -0.052491754 0.05844333 0.15927617 -0.20817177 -0.11731705
0.0012138195 0.04959686 -0.00063733256 -0.03881799 0.0007222113 -0.017752638 -0.15492186 -0.10021127
-0.050627246 -0.04617753 -0.009486964 -0.051785152 -0.0829433 -0.22644493 -0.06751862 -0.009645412
-0.015803428 -0.088545114 0.0007958425 0.10464294 0.09172809 -0.10329682 0.024902107 -0.034991004
-0.10847515 -0.105477065 -0.11082178 -0.08100956 -0.019186128 -0.24383092 -0.23005499 -0.08660475
-0.14651641 -0.054292116 -0.008201211 -0.11244482 -0.026188973 -0.041083224 -0.0014316924 -0.13171181
-0.118864276 0.0043847063 -0.01837906 -0.12732074 -0.042604264 -0.014661692 -0.044068996 0.050525278
-0.053849276 0.08198171 -0.03705187 -0.09223783 -0.04148412 0.004102355 0.014646902 -0.08291065
-0.00025368994 -0.05589256 0.051568814 -0.047765583 -0.074831136 -0.17407703 -0.08975977 -0.17088713
0.13003843 -0.07393167 0.027032325 -0.07214119 -0.04051052 -0.034984495 -0.005364666 -0.119651325
0.12369916 0.024779228 0.027088314 0.044396333 0.0844852 -0.07811649 0.029784666 0.013458556
-0.015801758 0.16768722 0.09135012 -0.027574454 -0.0038547534 0.022208046 -0.08613198 -0.04443542
-0.07145859 0.016159011 -0.05274857 -0.15316917 0.051950835 0.0140754115 0.002397004 -0.0052959016
0.042541694 -0.028606381 -0.017458342 0.04462129 0.061455783 -0.06864045 0.013944709 -0.08522413
0.06676789 0.06625653 -0.06360932 -0.015324072 -0.0313537 0.0077535026 0.00902525 -0.01676879
0.021001473 0.0051661115 0.013520439 -0.045832295 -1.570361 -0.5206037 -0.07275607 -0.20501202
0.7681117 -1.3251181 0.4475775 0.28692025 -0.5429394 -0.47515747 -0.21439524 0.11752006
0.5851466 -0.5012452 0.083398744 0.44164377 -1.0579772 -0.64016616 0.8147053 0.28951964
0.13189985 -2.1335423 0.07669304 -1.0803014 0.013947427 -0.11161631 0.28117403 -0.09110936
0.19456933 0.5093568 -0.35953704 -0.59626186 0.16140041 -0.7794071 -0.5542224 -0.5477208
-0.190293 0.104530714 0.49858072 -0.3499758 -0.35746127 0.02942795 -0.15552281 0.050470933
-0.6422256 -0.096375085 -0.33159685 -0.8188861 0.79466194 0.21646109 -0.14482555 -0.4199875
-0.7258205 -0.6170201 0.3722314 0.814162 0.6907437 -0.8207015 0.014731886 0.07119133
0.6061704 0.46070683 -0.001705894 -0.7384805 -0.5586205 1.0673593 0.43342432 0.15731214
0.2829332 -0.66199607 -0.001890175 -0.36305958 0.012392761 -0.40100077 -0.2406745 -0.35396823
1.0426159 -1.0732372 0.07875521 -1.0678666 -0.604403 -0.43916774 0.1941844 0.66350704
0.18439065 0.017219933 0.76043904 -0.76155895 -0.3921248 0.15234286 -0.5474773 -0.9743626
-0.19736475 0.24422541 0.9113852 0.276508 0.6924892 -0.17716122 0.4574795 0.31151065
-0.35257918 0.08425055 -0.24739422 0.7652941 0.015384504 0.16276483 -0.29922536 0.22652024
-0.5646702 0.31020924 -0.06898908 -0.14588097 -0.10905371 -0.27169132 0.17584269 -0.62955445
-0.19153374 0.58164716 0.27070144 0.62159926 -0.43504173 0.7296207 -0.33946386 -0.5099499

fc2.bias f4 [128]
00000000: 9881 cfbe c0a4 b8be 6eac 08bf 2a9c 913e
00000010: 8a43 f4be a120 13be aab6 65be 70e9 39bf
00000020: 0222 46bf 54a9 55bf 889a 1dbf 9459 c7be
00000030: 5ae0 40bf a66c c1be dca5 263e ae0e 3ebe
00000040: 4611 32bf 5115 c1be 739a 48bf 8be1 ffbb
00000050: ff37 90bf 966e e0be 47cd 12bf 4f3e 0ebf
00000060: 27cf 75bd 8a18 18bf a92b 70bf 2b0d cdbe
00000070: a26d e4be 0da3 48bf da75 6fbd 0af2 39bf
00000080: ae9c 35be 6445 8bbf f4a5 f0be 7492 fabe
00000090: 5776 17bf 1518 25bf a089 d0be 00b9 eebe
000000a0: 84e4 0cbf 00f0 2fbf fce2 28bf d11f c13e
000000b0: 3718 13bf 471d f2be 54bc 37be af3b 3ebf
000000c0: 6225 e7be 2684 04bf 2f25 9cbb 9e6d 17bf
000000d0: e87d 39be b956 73bf 6be8 b6bf 18cc 70bf
000000e0: 900b 103f 14ae ba3e 5fd5 493c 2d07 c1be
000000f0: ac55 083f 2ee9 91bd d7ad 39bf 66ee 14bf
00000100: 452c 48bf d4c3 10bf 9a1f 25bf 42e1 f6be
00000110: 5a0a 41bf 30f5 47bf 3309 783d f616 55bf
00000120: 93d7 8cbf ff07 c7bf fd5f edbd 3f1b 45bf
00000130: 0238 3dbf f7a4 03be 1705 2bbf 1bf3 1bbf
00000140: e22e d9be 2532 2cbf 401a 60bf aa3f 24bf
00000150: 852d 93be 2c47 b6be 087c 83bf 180f e1be
00000160: dac7 fbbe 407d 5a3f 8ad3 28bf 608d 4dbf
00000170: b01e 243f 49d8 6c3e 8c3f 833e e5d9 9dbf
00000180: 5ddc dabe 2207 8dbe eebe 2ebf 8611 02be
00000190: 31d2 f7be 1344 c6be 8e08 b5be b64f 12bf
000001a0: 6995 87bf 38e7 90bf a6f9 33bf 87fc 5fbe
000001b0: c797 21bf c361 2ebf 2275 1cbf cd52 0bbf
000001c0: 3d0b dfbe f869 27bf ea16 52bf c9ad 87be
000001d0: c921 c13d d3c0 1bbf 8949 80bf 40cf 75be
000001e0: fd88 583e 6012 dbbe 8263 14bf 5859 59bf
000001f0: bd3e 21bf 684c 353d 741a 50bf 668b 8bbf
-0.4052856 -0.36063194 -0.53388107 0.28439456 -0.47707778 -0.14367916 -0.22432962 -0.7262182
-0.7739564 -0.834615 -0.6156392 -0.3893553 -0.75342333 -0.37778205 0.16274208 -0.18560287
-0.6955761 -0.37711576 -0.7836067 -0.0078088692 -1.1267089 -0.4383437 -0.5734448 -0.55563825
-0.06001201 -0.59412444 -0.9381662 -0.4004911 -0.44614893 -0.78373796 -0.058462 -0.7263495
-0.1773555 -1.0880551 -0.47001612 -0.4893986 -0.5916495 -0.6448987 -0.4073 -0.4662552
-0.5503619 -0.68725586 -0.6597135 0.37719586 -0.57458824 -0.47287962 -0.17942935 -0.7430982
-0.45145708 -0.5176414 -0.004765175 -0.5915164 -0.18114436 -0.95054203 -1.4289678 -0.9406142
0.5626764 0.36460936 0.012318938 -0.37700787 0.53255725 -0.071245536 -0.72530884 -0.5817627
-0.7819255 -0.5654881 -0.64501345 -0.48218733 -0.7540642 -0.781085 0.060555648 -0.8323816
-1.1003288 -1.5549315 -0.11590574 -0.769947 -0.73913586 -0.12855898 -0.6680464 -0.60917825
-0.4241858 -0.67264014 -0.87540054 -0.64159644 -0.28745666 -0.35601175 -1.0272226 -0.43956828
-0.49175912 0.85347366 -0.65947783 -0.80293846 0.64109325 0.23129381 0.2563442 -1.2332121
-0.4274625 -0.27544504 -0.68260086 -0.12701997 -0.4840255 -0.38723812 -0.3535809 -0.5715288
-1.0592471 -1.1320562 -0.7030281 -0.21873675 -0.6312222 -0.6811792 -0.6111623 -0.5442322
-0.43563262 -0.6539607 -0.82066214 -0.26499775 0.09430272 -0.608411 -1.0022441 -0.24004841
0.21146007 -0.42787457 -0.57964337 -0.8490195 -0.62986356 0.04426232 -0.81290364 -1.0901916

fc3.weight f4 [1, 128]
00000000: c752 22bc 4f0b b83c 9279 5f3d 9a18 283d
00000010: 4d3e f8bc b722 f33c 5c69 f93c 2df8 ee3c
00000020: b757 2e3d 122b 45bd f479 99ba c536 8bbc
00000030: 4c22 8cbd edd1 85bd 2587 fa3c 9a98 0f3d
00000040: 2c4d 91bd d5fd 163d 1bb6 143d 17e8 7c3c
00000050: 46fc fa3c 81bd 223d 7a09 793d b900 2dbd
00000060: d0b3 e93c bc25 6abd 5d66 b5bd 4c3b 28bd
00000070: 1c4a dcbc a8b0 07be b46f a4bc 1e4c 6e3d
00000080: 24c1 d53c 061a 3ebd 1fa5 fbbb b8d2 f03c
00000090: 3c4f 23bd afd6 583d b0f7 093d aa64 23bd
000000a0: 3cc2 3a3d 07fd adbd 15a2 58bd 7f20 1c3d
000000b0: a9d6 b33c 3531 1ebd 9957 013d a002 05bd
000000c0: 08ab 44bd 192f ccbc 43a7 d43c 4ffe 44bd
000000d0: 7911 fa3c f505 3d3d 5fa6 253d 8003 373d
000000e0: 9043 af3c 9fec 523d 7d55 fc3c 8e2a 2ebc
000000f0: 29ce 463d b13a 023d c647 9f3c b341 0ebd
00000100: cb7b 0cbd 1146 ae3d 5a65 a8bb 32c9 023d
00000110: fbe1 3bbd c73e 193d 3126 233d 974e 2cbd
00000120: d401 013d 6375 883d 9989 003d 6b76 0fbd
00000130: e2a2 cb3c 286e fd3c 1e4a 08bd fcce cabc
00000140: 313a 36bd 9a73 083d 2587 95bd 481a bfbc
00000150: 7bb7 e93c 8ce7 21bd 9569 97bd 17b8 b9bc
00000160: 54fd b8bc 1b4f 573d 5749 9bbd e9b2 34bd
00000170: 9276 303d b509 123d 0cc2 073d fb89 1bbd
00000180: 273e 1e3b 140e e53c 2024 03be bfc1 023d
00000190: 4e77 c03c 2d80 70bc c92f d239 e29d 033d
000001a0: c26b 37bd 81d2 323d d605 1cbd 6e04 c83c
000001b0: b274 aabc 9867 bf3c 7c44 0dbd 853d fdbc
000001c0: 2302 f03c 796d 0cbd b228 2cbd 38b9 6e3d
000001d0: 201f 093d 99fe 11bd 02d8 4fbd 1187 d7bc
000001e0: eb46 d73c 7bf9 a7bc 5e4b 83bd 91ea 913d
000001f0: b5c7 e93d bad2 283d 1095 44bd 2d04 463d
-0.009907431 0.02246633 0.054559298 0.041039087 -0.030303145 0.02967964 0.030445747 0.029171074
0.04256412 -0.04813678 -0.0011709318 -0.01699389 -0.06842479 -0.06534181 0.03058202 0.03505764
-0.070947975 0.036863167 0.03630648 0.015436194 0.030637871 0.039731506 0.060800053 -0.042237017
0.028528124 -0.057164893 -0.08857415 -0.041072175 -0.026890807 -0.13250983 -0.020072795 0.05817806
0.026093073 -0.046411537 -0.007679596 0.029397354 -0.039870486 0.052939113 0.03368348 -0.039890923
0.045595393 -0.08495527 -0.05288895 0.03811693 0.021952944 -0.038621146 0.03157768 -0.032473207
-0.04801467 -0.024924802 0.025958663 -0.04809409 0.03052591 0.04614826 0.040441867 0.044681072
0.021394521 0.05149519 0.030802483 -0.010630263 0.048536453 0.031794254 0.019443404 -0.034730624
-0.034297746 0.08509458 -0.005139035 0.031930156 -0.04586981 0.037413385 0.039831344 -0.042067137
0.031495884 0.06663015 0.031381223 -0.03502504 0.024857942 0.030936316 -0.03327381 -0.024756901
-0.04448909 0.03331337 -0.073011674 -0.023327962 0.028529873 -0.03952746 -0.07393185 -0.022670789
-0.022581734 0.052565675 -0.07582348 -0.044115935 0.043081827 0.03565379 0.033144042 -0.037973385
0.0024145932 0.027960815 -0.1280675 0.031923052 0.023494389 -0.014678997 0.00040089924 0.03213299
-0.0447805 0.043657783 -0.038091503 0.024416175 -0.020807598 0.023364827 -0.03448914 -0.030913124
0.029297894 -0.03428409 -0.042030998 0.058282107 0.03347695 -0.035643194 -0.05074311 -0.026309522
0.026278934 -0.020504704 -0.064108595 0.07124818 0.11415044 0.04121659 -0.04799372 0.048343826
