checkpoint_critic.pth (torch_old, 87009 bytes, 5 tensors)

fcs1.weight f4 [128, 33]
0.008809951 -0.39629677 0.35774773 -0.777902 -1.5344671 -2.9738636 -0.048849735 -0.15910392
-0.074165985 -0.37749317 -0.029231485 -0.12204622 -0.029436309 -0.7076694 0.15583998 -0.30182266
2.4396727 -0.97020155 0.92427164 1.1390618 -0.08714705 0.4866752 -0.20708749 -0.0077276556
0.03943355 -0.030741762 0.8996915 1.2129891 0.04642935 -0.0004203543 -1.248172 -0.031246398
0.4662079 0.5654184 -0.11187475 0.63635355 -0.49325383 0.30709526 -0.11776465 -1.4119219
0.5930463 -0.12015936 0.16027595 -0.13956319 -0.10038912 0.002270276 -0.64893615 0.1009776
-0.6651345 1.5560285 0.229683 -3.2879326 2.1260371 -0.26565158 0.0419383 0.22416574
0.2538527 -0.10138601 0.16078453 0.3040452 1.0769578 0.36443573 -0.049497783 -1.1371896
-0.046756987 -1.9625582 0.9298777 -0.8465308 -0.8966147 -0.3124741 -0.95316225 -0.28844103
-0.23091781 0.13999109 0.17559315 -0.06575851 -0.020699369 0.06132898 0.005165034 -1.2897687
0.7295822 1.2833912 -0.18145476 0.53516513 -0.5437139 -0.1334422 -0.07510267 -0.14721915
-0.02785025 -0.10660705 0.052029014 0.119097985 0.7439939 0.6047204 -0.68049985 -0.03916012
-0.6621922 -0.04325412 0.034435898 -0.07509295 -0.5225236 0.06465638 0.087884724 0.4036395
-3.8273165 -1.3127633 0.5183244 0.13704553 0.41367593 -0.14434132 -0.045172334 0.099910155
-0.10654586 0.4395052 -0.023364142 1.3265611 -1.8987422 -0.13485484 0.51037353 -0.13467498
0.159658 0.09686353 0.03462569 0.07403454 0.16133592 0.18046832 0.8059426 0.4921887
-0.03370774 -0.8300493 0.059218876 -0.20728107 -0.38662106 -0.097491555 -0.17753798 0.2813691
0.20829758 -1.1797532 0.77403015 0.27687362 0.43812236 -0.25127286 -0.15189067 0.074468896
0.025953144 0.2912256 0.197725 0.31718537 0.22745119 0.14462659 -0.42300487 2.4745226
-0.11306356 -0.18368647 0.30556124 -0.095689304 0.100476414 0.062201917 -0.29152346 0.53375196
-0.5411718 0.045772664 -0.5474935 0.071299426 0.3560714 0.7774994 0.5418556 0.38845885
-2.2126336 -2.7140563 -1.6984482 -0.025703777 -0.2467664 0.04886776 -1.1641823 0.49356383
0.06226781 -0.13388631 -0.41101092 0.4913589 -0.8995329 0.68402916 1.2562069 -0.334752
0.12827411 -0.121118516 0.37465537 0.24938574 0.18268953 0.19895372 -0.34481144 0.49557906
0.1694607 0.5640952 -0.014070831 -0.1916579 0.0079577565 0.38470754 0.88280845 0.3784641
0.22457297 -4.1337695 -0.2040809 -3.2936969 0.27801046 -0.5848403 0.050984364 0.3393219
0.23477821 -0.10071711 -0.07330078 0.08335114 -0.28998804 -0.20150311 -0.07160079 0.21416575
-0.8660571 2.0447476 -0.11867673 -0.13906941 -0.120172836 0.009374263 -0.021061115 0.14442565
-0.71431875 1.0514824 0.35302538 -0.04365979 -1.0054172 0.037509598 -0.36582303 -0.3529265
0.27522698 0.70263463 -3.5057201 -0.74217683 -0.5637729 1.3587521 -0.020565739 -0.4812164
-1.011627 0.16349617 -0.033444263 0.3051861 0.40277368 -0.11478876 -0.4211641 -0.20325586
-0.9926504 0.814436 -1.3734173 -0.078505576 -0.22214186 -0.24668397 -0.061767492 0.07387177
00000000: 9d57 103c 69e7 cabe b62a b73e 9624 47bf
00000010: 6b69 c4bf c853 3ec0 a916 48bd 23ec 22be
00000020: 56e4 97bd c946 c1be de76 efbc 5ef3 f9bd
00000030: 6a24 f1bc d229 35bf 8494 1f3e 8088 9abe
00000040: 9923 1c40 215f 78bf 119d 6c3f c7cc 913f
00000050: 277a b2bd 7e2d f93e be0e 54be 4638 fdbb
00000060: 1385 213d 26d6 fbbc 2f52 663f 3a43 9b3f
00000070: b42c 3e3d 0063 dcb9 1ac4 9fbf 72f8 ffbc
00000080: cdb2 ee3e 43bf 103f 971e e5bd 11e8 223f
00000090: c48b fcbe 973b 9d3e 982e f1bd dbb9 b4bf
000000a0: e2d1 173f 1c16 f6bd 611f 243e a7e9 0ebe
000000b0: d098 cdbd e9c8 143b ae20 26bf 58cd ce3d
000000c0: 4146 2abf f12b c73f 0532 6b3e 7d6d 52c0
000000d0: fe10 0840 7c03 88be 7fc7 2b3d b48b 653e
000000e0: fbf8 813e 78a3 cfbd b3a4 243e d0ab 9b3e
000000f0: c1d9 893f 5297 ba3e 30be 4abd 6e8f 91bf
00000100: 4184 3fbd 1b35 fbbf 770c 6e3f 3eb6 58bf
00000110: 8a88 65bf 9bfc 9fbe 7102 74bf 8bae 93be
00000120: b875 6cbe d359 0f3e b1ce 333e 66ac 86bd
00000130: b991 a9bc 1934 7b3d 723f a93b 2417 a5bf
00000140: e6c5 3a3f 2a46 a43f 47cf 39be 9500 093f
00000150: d630 0bbf 12a5 08be 6ecf 99bd 9ec0 16be
00000160: 3526 e4bc cc54 dabd 601c 553d a5e9 f33d
00000170: 6276 3e3f f5ce 1a3f 3d35 2ebf 5d66 20bd
00000180: 6e85 29bf 3b2b 31bd a80c 0d3d 55ca 99bd
00000190: 1bc4 05bf 906a 843d e8fc b33d d6a9 ce3e
000001a0: c1f2 74c0 a108 a8bf e8b0 043f aa55 0c3e
000001b0: 55cd d33e 36ce 13be a006 39bd b29d cc3d
000001c0: b734 dabd d306 e13e 2866 bfbc c1cc a93f
000001d0: fc09 f3bf 6317 0abe d7a7 023f 3de8 09be
000001e0: 637d 233e 6360 c63d abd3 0d3d 6c9f 973d
000001f0: 3e35 253e b0cc 383e 4152 4e3f 2800 fc3e
00000200: 2111 0abd 1c7e 54bf 7e8f 723d 7d41 54be
00000210: 32f3 c5be a7a9 c7bd 84cc 35be 9c0f 903e
00000220: f64b 553e 2702 97bf d726 463f 61c2 8d3e
00000230: 9351 e03e d6a6 80be 3a89 1bbe 2683 983d
00000240: b09b d43c 861b 953e 6c78 4a3e 1f66 a23e
00000250: f7e8 683e fe18 143e 1894 d8be 945e 1e40
00000260: de8d e7bd 4e18 3cbe 8672 9c3e c1f8 c3bd
00000270: 94c6 cd3d 70c7 7e3d 9042 95be f8a3 083f
00000280: 3c8a 0abf 1e7c 3b3d 8928 0cbf 6f05 923d
00000290: fe4e b63e 330a 473f 0cb7 0a3f 14e4 c63e
000002a0: ca9b 0dc0 19b3 2dc0 c066 d9bf ba90 d2bc
000002b0: 55b0 7cbe 8f29 483d ed03 95bf 66b4 fc3e
000002c0: 880c 7f3d 7e19 09be 0670 d2be 6593 fb3e
000002d0: ca47 66bf 891c 2f3f 63cb a03f 9d64 abbe
000002e0: 4a5a 033e fc0c f8bd d4d2 bf3e fa5e 7f3e
000002f0: f712 3b3e 86ba 4b3e 208b b0be 8abc fd3e
00000300: 1b87 2d3e 8b68 103f 5889 66bc f841 44be
00000310: 4061 023c 63f8 c43e bcff 613f 0cc6 c13e
00000320: 75f6 653e d747 84c0 95fa 50be eecb 52c0
00000330: 6357 8e3e 18b8 15bf fbd4 503d 9abb ad3e
00000340: b369 703e c644 cebd b81e 96bd 01b4 aa3d
00000350: 5079 94be d556 4ebe 6fa3 92bd 444e 5b3e
00000360: ebb5 5dbf 25dd 0240 c90c f3bd 3668 0ebe
00000370: 2d1d f6bd 8296 193c 5c88 acbc 51e4 133e
00000380: 98dd 36bf fa96 863f bebf b43e 9cd4 32bd
00000390: 83b1 80bf aaa3 193d 284d bbbe c8b2 b4be
000003a0: 8dea 8c3e dddf 333f b85d 60c0 4dff 3dbf
000003b0: 6c53 10bf 97eb ad3f 7b79 a8bc ff61 f6be
000003c0: fe7c 81bf 8a6b 273e dafc 08bd 5a41 9c3e
000003d0: 5a38 ce3e 5f16 ebbd d2a2 d7be 4e22 50be
000003e0: 561e 7ebf e17e 503f 23cc afbf 88c7 a0bd
000003f0: 2879 63be b99a 7cbe e9ff 7cbd 154a 973d

fcs1.bias f4 [128]
-1.3532052 -1.1527712 -0.7425518 -0.7509359 -0.73323977 -0.3940566 -0.9503881 -0.27097625
-0.6469707 -1.1185737 -0.30035138 -1.2139518 -1.0305387 -1.5557014 -1.2127066 -0.32730305
-1.3324164 0.20302859 -0.8500295 -1.0190426 -1.5551682 -1.2088941 -1.4522847 -1.5988244
-0.889423 -1.3185868 -0.89700747 -0.9874054 -1.7754575 -1.2573813 -1.5045872 -1.0570062
-0.8630287 -1.1874042 -0.49570572 -0.25551614 -0.5753614 -0.68246645 -0.62524754 -1.354439
-1.2846226 -0.51290643 -0.35689756 -0.77700335 -0.9591815 -0.6890787 -1.0272621 -1.4324319
-1.8147378 -1.4417938 -0.042115457 -0.9465233 -0.60585505 -1.4936403 -1.166971 -0.52226794
-1.2075896 -0.98514396 -0.82100415 -0.18584433 -0.8052262 -1.3468605 -0.19941728 -0.52239513
-0.7126638 -1.4653388 -0.9645363 -0.3131565 -0.1292714 0.05978129 -0.9275444 -0.8923636
-1.442403 -0.7318665 -0.7696381 -1.4939542 -0.98605245 -1.2054317 -0.75265956 -0.5408908
-0.6343919 -1.355524 -1.0741528 0.10270078 -1.1567994 -1.1489794 -1.5007675 -1.0103779
-1.0037849 -0.3752387 -0.9830389 -0.23181622 -1.1411885 -0.554874 -0.06337118 -0.55590385
-0.70370257 -0.19501813 -1.5459845 -1.1195502 -0.63661206 -0.7751433 -0.9658678 -0.96321
-0.46742308 -1.1505563 -1.3050808 -0.6746827 -0.5822872 -1.4078751 -0.7215141 -1.0964524
-1.2864541 -1.075227 -0.34445226 -1.2647448 -0.5645034 -0.8186115 -0.81950253 -0.36436996
-2.1117666 -1.0492394 -0.7038826 -0.6086115 -0.515628 -1.8589208 -0.15367004 -1.1208882
00000000: d435 adbf 028e 93bf e017 3ebf 563d 40bf
00000010: 9ab5 3bbf c9c1 c9be a24c 73bf 66bd 8abe
00000020: df9f 25bf 6c2d 8fbf a8c7 99be c662 9bbf
00000030: b1e8 83bf 3921 c7bf f839 9bbf 4494 a7be
00000040: 9f8c aabf bae6 4f3e 899b 59bf fd6f 82bf
00000050: c00f c7bf 0bbd 9abf 77e4 b9bf 47a6 ccbf
00000060: 3ab1 63bf 74c7 a8bf 48a2 65bf 9ac6 7cbf
00000070: 3142 e3bf dff1 a0bf 5096 c0bf fb4b 87bf
00000080: 73ef 5cbf dcfc 97bf 24cd fdbe 03d3 82be
00000090: e24a 13bf 1fb6 2ebf 3910 20bf 425e adbf
000000a0: 836e a4bf d64d 03bf 47bb b6be b1e9 46bf
000000b0: eb8c 75bf 7667 30bf 537d 83bf ee59 b7bf
000000c0: 5449 e8bf b38c b8bf 4281 2cbd 5a4f 72bf
000000d0: 5119 1bbf 9b2f bfbf 4e5f 95bf 5ab3 05bf
000000e0: 4c92 9abf 6532 7cbf 542d 52bf fa4d 3ebe
000000f0: 4e23 4ebf ed65 acbf 0b34 4cbe b0bb 05bf
00000100: 2371 36bf 3990 bbbf daeb 76bf 0c56 a0be
00000110: b95f 04be 3add 743d 8d73 6dbf f171 64bf
00000120: a9a0 b8bf 9a5b 3bbf 0107 45bf e439 bfbf
00000130: ef6d 7cbf 964b 9abf 4cae 40bf d277 0abf
00000140: 8267 22bf cf81 adbf d77d 89bf c954 d23d
00000150: 0112 94bf c211 93bf 2619 c0bf 1054 81bf
00000160: 067c 80bf 491f c0be 70a8 7bbf 3b61 6dbe
00000170: 7712 92bf 390c 0ebf c0c8 81bd b74f 0ebf
00000180: da25 34bf d5b2 47be d2e2 c5bf 6c4d 8fbf
00000190: 02f9 22bf cb6f 46bf 1d43 77bf ee94 76bf
000001a0: 1452 efbe 6e45 93bf e30c a7bf 01b8 2cbf
000001b0: c610 15bf 4035 b4bf 26b5 38bf 8d58 8cbf
000001c0: 87aa a4bf 0aa1 89bf 0c5c b0be 28e3 a1bf
000001d0: 4b83 10bf 8690 51bf ebca 51bf b38e babe
000001e0: 2f27 07c0 7a4d 86bf a631 34bf f7cd 1bbf
000001f0: 3200 04bf 1ef1 edbf ae5b 1dbe 4479 8fbf

fc2.weight f4 [128, 132]
0.2534403 -1.2462177 0.20462246 -0.3899451 0.044491768 -0.11739821 -0.07351624 0.55478793
0.40667334 0.76139784 -0.4404324 -0.30904275 0.026453743 -0.11391942 -0.17706531 -0.007423294
-0.41244557 -0.32779518 -0.62643445 0.1595529 -0.6119926 0.15829623 -2.2971594 -0.24000221
-0.2145399 -0.39526847 0.5587501 0.10023912 -1.6589621 -0.919678 0.4475117 -0.2807089
0.55203754 0.2732987 -0.3930951 -0.07667771 -0.1904212 -0.4088391 -0.11296762 -0.05568347
-2.0529711 -0.1484073 -1.2332615 -0.21429831 -0.06975698 -0.029050546 0.7306255 0.12847036
-0.07745092 0.37623337 -0.44421747 -0.21570033 0.17533301 0.7254762 -0.025672194 -0.18567105
-0.1332909 -0.3642665 -0.45123595 -0.22769673 -1.6409037 -0.115712285 0.33495754 0.37282863
-0.78946 -0.72288203 -0.96780807 0.037792105 0.3270997 0.0051956903 0.30251428 0.075742476
-0.15566078 0.16503412 -0.50541806 0.4973408 -0.21463974 0.62385243 -0.1964796 0.14643146
0.03644226 0.13026902 0.5779678 -0.25588498 -0.97209793 -0.5790358 -0.19472945 -0.8721773
0.50740325 0.0148318345 -0.3467029 -0.18084265 -0.09903626 -0.51989716 0.79189444 0.06317565
-0.30811718 0.2829501 -1.8967472 0.53263813 0.103338726 -0.15342301 -0.3101613 0.30635563
-0.24342225 0.80643106 -0.5705067 -0.22811782 -0.8498943 -0.46506563 -0.06346917 0.487254
-0.13019522 0.7360358 -2.7132244 0.1320177 -0.32300338 -0.3427007 0.05848606 -0.19965947
-1.9942135 -0.7614843 -0.714783 0.091084205 0.5648283 -0.03480116 0.0024388386 -0.25894973
0.16394076 0.1260114 0.3399342 -0.103959 -0.27687505 -0.42055783 -0.53236884 -0.26549298
-0.43277273 -0.049185324 -1.498782 -0.27562308 0.5730575 -0.47346342 -0.85092205 -1.0917783
-1.5777396 0.8347313 0.073852636 0.052784003 -0.43233567 0.1758522 0.23810488 0.30652136
0.10188017 0.51010996 -0.1377323 0.92061925 -0.14297365 -0.865008 -0.58873534 -0.48686364
-2.2859676 0.06667657 0.78138036 0.2728211 -0.24040787 -0.41354206 0.015426672 0.20422754
0.7389202 0.0051133307 1.0239205 0.3391286 -0.19482878 0.14422405 -1.0388658 -0.14849332
-0.53241056 -0.12600198 -0.55913454 -0.61294675 -0.12265303 -0.25399494 0.47556165 -0.29194552
0.017740456 0.5449696 -0.31227553 0.47756565 -0.2907361 0.080383755 -0.64930105 -0.23501205
0.08992202 -0.9509592 -1.0585121 0.19641683 -0.3623714 -0.21082878 -0.45217732 0.27961445
0.16673295 -0.099670745 -1.4183007 -0.2348899 -2.251973 0.34824854 0.021343317 -1.0097936
0.074230894 1.1382138 0.015517736 0.08780275 0.009340434 -0.28411832 -0.018599842 -0.0671334
-0.30752006 0.3573881 -0.45897838 -0.20555209 -0.030849937 0.28045613 -0.35811254 -0.08124246
0.33793008 -0.30567583 -0.0791347 0.3641149 0.0899046 0.33505383 0.14067094 -0.8896211
-0.28267422 0.317486 -0.48106563 0.1598627 0.33996978 -0.07748457 0.24776442 0.15665886
-0.38985068 -0.014154507 -0.24344648 -0.12526792 -0.711354 -0.9283088 -0.38310802 -0.2874019
-0.45357397 0.5397572 -0.19312681 -0.12546606 -1.4490095 -0.2630519 -0.18927357 0.01600701
00000000: edc2 813e 1084 9fbf 8d88 513e e2a6 c7be
00000010: 003d 363d 796e f0bd af8f 96bd 9506 0e3f
00000020: 7d37 d03e f8ea 423f 5b80 e1be da3a 9ebe
00000030: 85b5 d83c 964e e9bd 9c50 35be 1a3f f3bb
00000040: 112c d3be c5d4 a7be 025e 20bf d661 233e
00000050: 8cab 1cbf 6818 223e a904 13c0 24c3 75be
00000060: 59b0 5bbe a160 cabe 3f0a 0f3f 2b4a cd3d
00000070: df58 d4bf 0470 6bbf 4120 e53e 14b9 8fbe
00000080: 5552 0d3f cfed 8b3e c343 c9be 3409 9dbd
00000090: c6fd 42be 5c53 d1be 915b e7bd 5a14 64bd
000000a0: e163 03c0 15f8 17be 83db 9dbf 0471 5bbe
000000b0: bfdc 8ebd 69fb edbc 460a 3b3f bc8d 033e
000000c0: 979e 9ebd a9a1 c03e 7970 e3be 8ce0 5cbe
000000d0: 7f8a 333e cfb8 393f 7e4e d2bc 8d20 3ebe
000000e0: 697d 08be 2481 babe 6608 e7be 5529 69be
000000f0: 2209 d2bf 90fa ecbd 8e7f ab3e 65e3 be3e
00000100: 0d1a 4abf cc0e 39bf 45c2 77bf e5cb 1a3d
00000110: 9d79 a73e 9c40 aa3b 27e3 9a3e df1e 9b3d
00000120: 8a65 1fbe b4fe 283e 1463 01bf 74a3 fe3e
00000130: 85ca 5bbe cbb4 1f3f f331 49be 21f2 153e
00000140: 7b44 153d 3e65 053e b3f5 133f 5b03 83be
00000150: 69db 78bf b13b 14bf 2867 47be 0347 5fbf
00000160: 2ee5 013f 3901 733c 0b83 b1be d12e 39be
00000170: 86d3 cabd fb17 05bf 98b9 4a3f 3c62 813d
00000180: 89c1 9dbe d6de 903e 9dc8 f2bf f95a 083f
00000190: 41a3 d33d ec1a 1dbe 76cd 9ebe a5da 9c3e
000001a0: af43 79be 4472 4e3f ba0c 12bf b897 69be
000001b0: ac92 59bf 151d eebe 20fc 81bd 5b79 f93e
000001c0: e551 05be d86c 3c3f 78a5 2dc0 a62f 073e
000001d0: b360 a5be 7776 afbe 148f 6f3d 8873 4cbe
000001e0: 6342 ffbf a3f0 42bf 05fc 36bf 5b8a ba3d
000001f0: 9698 103f a98b 0ebd ecd4 1f3b 0f95 84be
00000200: 16e0 273e 2209 013e db0b ae3e 75e8 d4bd
00000210: 91c2 8dbe 5b53 d7be 5349 08bf b2ee 87be
00000220: 6394 ddbe 8d76 49bd 17d8 bfbf 781e 8dbe
00000230: e5b3 123f cc69 f2be 07d6 59bf 64bf 8bbf
00000240: 5ff3 c9bf f3b0 553f 0d40 973d 0a34 583d
00000250: 1a5b ddbe 9912 343e c4d1 733e 5ef0 9c3e
00000260: 8da6 d03d 9196 023f b209 0dbe b4ad 6b3f
00000270: af67 12be 2a71 5dbf 5cb7 16bf 3146 f9be
00000280: 4b4d 12c0 ba8d 883d 8b08 483f 35af 8b3e
00000290: 7b2d 76be c9bb d3be 27c0 7c3c 0621 513e
000002a0: e029 3d3f ba8d a73b d40f 833f 44a2 ad3e
000002b0: 3281 47be 78af 133e 8ef9 84bf a20e 18be
000002c0: 0f4c 08bf aa06 01be 7123 0fbf 14ea 1cbf
000002d0: 8331 fbbd a00b 82be d17c f33e e279 95be
000002e0: 6f54 913c 2183 0b3f 94e2 9fbe 7c83 f43e
000002f0: 5ddb 94be 3da0 a43d 9838 26bf 00a7 70be
00000300: 0929 b83d 1072 73bf 537d 87bf 7e21 493e
00000310: bf88 b9be 80e3 57be c983 e7be a029 8f3e
00000320: 0bbc 2a3e 2d20 ccbd e18a b5bf fa86 70be
00000330: 5320 10c0 a24d b23e 2ed8 ae3c eb40 81bf
00000340: 5e06 983d fdb0 913f 1a3e 7e3c eed1 b33d
00000350: 9f08 193c f577 91be b25e 98bc 3c7d 89bd
00000360: 4573 9dbe 93fb b63e 37ff eabe 3f7c 52be
00000370: 02b9 fcbc f297 8f3e 875a b7be 7262 a6bd
00000380: 2c05 ad3e 8b81 9cbe 6011 a2bd 456d ba3e
00000390: e71f b83d 2d8c ab3e 0b0c 103e 35be 63bf
000003a0: adba 90be 868d a23e 3c4e f6be 0cb3 233e
000003b0: 8510 ae3e 3bb0 9ebd f5b5 7d3e 2e6b 203e
000003c0: 829a c7be 4ee8 67bc 094a 79be 3c46 00be
000003d0: 4c1b 36bf a5a5 6dbf bc26 c4be 5826 93be
000003e0: d93a e8be 872d 0a3f 09c3 45be 2d7a 00be
000003f0: 2579 b9bf bdae 86be eed0 41be 2221 833c

fc2.bias f4 [128]
0.16015865 -1.3093159 -1.4348774 -1.4948341 -0.73847103 -1.2746418 -0.38102326 -0.090094656
1.6813065 -0.50456935 -0.9235858 0.9894232 -0.17779317 0.35792375 -0.29977456 -1.0815777
1.0898187 0.04386425 -2.1676443 -0.312201 -0.153692 -1.1152823 -0.08053397 -0.7314827
-0.12633045 -0.37347972 -0.20941971 1.1729187 -0.50524193 -1.7433934 -0.3094938 -0.18836091
0.54212195 -0.18388031 -1.2733244 -0.19170351 -0.08244776 1.2663443 -1.2765782 -1.9987773
-0.021716982 -0.513627 -0.6866031 -0.28259736 -0.36379692 0.44650236 -0.8563325 -0.19146496
-0.3067512 -0.76544803 2.2324722 -0.5272928 1.9754275 -2.0778031 -0.41110426 -0.14926347
-0.735166 -1.4529777 0.32476524 -0.17215869 -2.141308 -0.007850327 0.19503795 -0.89110684
-1.0827037 -0.20994227 -0.4387672 2.1185412 0.3861037 -1.3369014 0.76394886 -0.5399377
-0.087984726 -0.41184217 0.049870376 -0.71047956 -2.3077826 -1.9479117 -0.48316243 -1.9873177
-0.97570306 -0.114151575 -0.6740532 -0.705807 -0.09906157 -1.7580061 -0.11817716 -1.7238919
-1.1307291 -0.16576962 0.32838318 -0.64779925 -0.33194175 -0.27795738 -0.19338536 -0.9252763
2.1137617 -1.5154673 -0.41850233 -1.1899043 -0.23465775 2.0101416 0.47384587 0.096015945
0.77227557 -0.25563672 -0.63258034 -0.1914521 0.4786496 -0.3919609 -0.23568332 1.7981299
0.7933057 -1.0325197 -0.84742093 -0.5239797 1.5273151 -0.54992783 0.104645476 -0.13508381
-0.43516293 -0.74351585 0.8723541 -1.9196944 -0.36374328 -0.034700997 -2.5206287 -1.2927856
00000000: a100 243e aa97 a7bf 10aa b7bf b956 bfbf
00000010: 700c 3dbf 7627 a3bf 7b15 c3be 8c83 b8bd
00000020: 0d35 d73f 752b 01bf 1e70 6cbf d74a 7d3f
00000030: 6a0f 36be c841 b73e 0d7c 99be 2371 8abf
00000040: 2e7f 8b3f 00ab 333d afba 0ac0 cfd8 9fbe
00000050: 7061 1dbe 92c1 8ebf feee a4bd 7342 3bbf
00000060: c55c 01be bc38 bfbe 1f72 56be 3322 963f
00000070: 8957 01bf 8427 dfbf f975 9ebe afe1 40be
00000080: 81c8 0a3f 1f4b 3cbe 4bfc a2bf ed4d 44be
00000090: 5fda a8bd 9217 a23f ea66 a3bf efd7 ffbf
000000a0: d0e7 b1bc 0f7d 03bf 39c5 2fbf 9ab0 90be
000000b0: 9743 babe f59b e43e 9b38 5bbf 640f 44be
000000c0: 7e0e 9dbe 67f4 43bf d3e0 0e40 a9fc 06bf
000000d0: cfda fc3f bafa 04c0 427c d2be 86d8 18be
000000e0: d733 3cbf 2cfb b9bf a147 a63e 5e4a 30be
000000f0: 310b 09c0 a89e 00bc 07b8 473e 941f 64bf
00000100: 0996 8abf 1bfb 56be 18a6 e0be 2e96 0740
00000110: 62af c53e 961f abbf 2792 433f 5b39 0abf
00000120: 5631 b4bd fadc d2be e144 4c3d fde1 35bf
00000130: b6b2 13c0 2c55 f9bf 1161 f7be 6d60 febf
00000140: adc7 79bf 4dc8 e9bd c08e 2cbf c4af 34bf
00000150: cbe0 cabd 5806 e1bf de06 f2bd 7da8 dcbf
00000160: bbbb 90bf 83bf 29be d721 a83e 2cd6 25bf
00000170: 45f4 a9be 6e50 8ebe d006 46be e8de 6cbf
00000180: df47 0740 d5fa c1bf f045 d6be c94e 98bf
00000190: 1f4a 70be 29a6 0040 ed9b f23e 02a4 c43d
000001a0: dab3 453f d1e2 82be c9f0 21bf 050c 44be
000001b0: 8f11 f53e 19af c8be f856 71be 1f29 e63f
000001c0: 1516 4b3f 9b29 84bf 94f0 58bf 8923 06bf
000001d0: 107f c33f 12c8 0cbf 5e50 d63d 6953 0abe
000001e0: adcd debe 0e57 3ebf 9952 5f3f 8cb8 f5bf
000001f0: 8f3c babe a222 0ebd fb51 21c0 007a a5bf

fc3.weight f4 [1, 128]
0.012881447 -0.013484558 -0.021120189 -0.029562533 -0.037962034 -0.056856 0.031109182 -0.013645659
0.023306632 -0.017606255 0.018659249 0.012599862 0.0026402837 -0.011965114 -0.02383451 -0.030964917
0.01273465 0.029669266 -0.025339186 0.017842535 0.016047401 -0.02851769 -0.028751515 -0.029467044
-0.03498888 0.01784612 -0.00032188627 0.010774163 -0.033525933 -0.018263627 0.014624711 -0.041373927
-0.025586067 -0.022244507 -0.04108172 0.0057663065 0.014117328 0.0288603 -0.028779931 -0.022661915
-0.03271613 -0.038071003 -0.037299212 -0.027068267 0.011335612 0.019162592 0.018097876 0.0093636345
-0.07195998 -0.039969392 0.020494984 0.014366389 0.036610235 -0.028838389 0.028465409 -0.0032351303
0.015949216 0.0017943211 0.013466875 0.020746777 -0.028168874 0.014209843 0.010408363 -0.024254046
-0.04840821 0.019015282 0.028852185 0.013395924 0.009093234 0.028758766 0.0143193295 -0.033117972
-0.028438276 -0.03190397 -0.03307668 0.032542523 -0.022325935 -0.015787343 0.02634046 -0.023948751
-0.018040553 0.017716352 -0.018094908 -0.034763888 0.020184973 0.02598723 -0.030155499 -0.03230208
-0.014524324 0.0021170585 0.01168545 -0.05543436 0.02325095 0.043373507 0.014611146 -0.035505813
0.023750396 -0.037451904 -0.009397916 0.007401691 -0.015591835 0.014964418 0.018073332 -0.030154323
0.014318032 -0.0029349092 -0.06376859 -0.03395439 0.02064759 0.013770838 0.012406395 0.011795952
0.010179621 -0.053073123 -0.03885495 -0.06593915 0.015019072 -0.032567304 -0.023913544 -0.012220767
0.021088721 0.0199835 0.012459307 -0.034868512 0.021774478 -0.010329157 -0.040217392 -0.019033723
00000000: b40c 533c 56ee 5cbc 3f04 adbc 202d f2bc
00000010: 147e 1bbd d6e1 68bd afd8 fe3c 0b92 5fbc
00000020: 8ded be3c fe3a 90bc 48db 983c a76f 4e3c
00000030: 9c08 2d3b 5309 44bc 9740 c3bc 23aa fdbc
00000040: fea4 503c f60c f33c 2094 cfbc 822a 923c
00000050: d775 833c ee9d e9bc 4c88 ebbc df64 f1bc
00000060: 8050 0fbd 0732 923c d8c2 a8b9 1d86 303c
00000070: 7d52 09bd 9a9d 95bc 7c9c 6f3c b577 29bd
00000080: df99 d1bc 1d3a b6bc 4e45 28bd 49f3 bc3b
00000090: 5e4c 673c 706c ec3c e4c3 ebbc 7ba5 b9bc
000000a0: 5901 06bd 57f0 1bbd 0fc7 18bd 45be ddbc
000000b0: 01b9 393c defa 9c3c ff41 943c ee69 193c
000000c0: c15f 93bd f2b6 23bd 19e5 a73c 0161 6b3c
000000d0: 9df4 153d 7c3e ecbc 4a30 e93c 7b04 54bb
000000e0: eea7 823c 6d2f eb3a 2ba4 5c3c 25f5 a93c
000000f0: 69c2 e6bc 67d0 683c d787 2a3c 6cb0 c6bc
00000100: b047 46bd f0c5 9b3c 6b5b ec3c 947a 5b3c
00000110: cafb 143c 8197 eb3c 9f9b 6a3c b6a6 07bd
00000120: 63f7 e8bc bdad 02bd 6a7b 07bd 4f4b 053d
00000130: e1e4 b6bc 7554 81bc f3c7 d73c 2c30 c4bc
00000140: c8c9 93bc e221 913c c63b 94bc 9464 0ebd
00000150: f55a a53c 2ce3 d43c aa08 f7bc 304f 04bd
00000160: 6ef7 6dbc 59be 0a3b 5474 3f3c 240f 63bd
00000170: c778 be3c 6ba8 313d 9763 6f3c 8b6e 11bd
00000180: 3190 c23c 2b67 19bd b7f9 19bc e289 f23b
00000190: e574 7fbc 512d 753c 860e 943c 3306 f7bc
000001a0: 2e96 6a3c 9b57 40bb 1b99 82bd c213 0bbd
000001b0: 2225 a93c 159f 613c 3144 4b3c cf43 413c
000001c0: 6dc8 263c 3463 59bd 5e26 1fbd 1b0b 87bd
000001d0: 8e12 763c 4b65 05bd 56e6 c3bc 9d39 48bc
000001e0: 41c2 ac3c 70b4 a33c 1f22 4c3c 49d2 0ebd
000001f0: 6460 b23c a03b 29bc feba 24bd 9cec 9bbc
