checkpoint.pth (torch_old, 28333 bytes, 6 tensors)

fc1.weight f4 [64, 37]
000000 60 b5 d7 3d d4 32 cd bd b9 4d 2e bd 1a 75 05 bf
       0.105326414 -0.1001946 -0.04255459 -0.5213181
000010 d1 cf e8 be 83 f6 69 be af 85 88 bb e0 4e 63 3d
       -0.4547105 -0.22847943 -0.004166327 0.055495143
000020 06 7d 01 3e 03 75 03 3e 21 3c 88 bc e8 6a 0d be
       0.12645349 0.12837605 -0.016630234 -0.13810313
000030 82 ed 65 be a0 f9 b0 be c2 69 ab be f1 dc 1a be
       -0.22453883 -0.3456545 -0.33479124 -0.15123345
000040 8e 1d 59 bc 7a a0 2e 3d 21 f6 58 3d 30 de 1d be
       -0.013251675 0.04263351 0.0529691 -0.15416789
000050 e0 6b 1d 3e bb 53 ae be 9f 74 35 be 11 a5 5e 3e
       0.15373182 -0.34048256 -0.17720269 0.21742655
000060 34 76 0e be 26 63 0b bf d8 d8 8c bd 32 de 0a 3e
       -0.13912278 -0.54448164 -0.06877297 0.13561323
000070 8a cd 33 be 3c cb 4d be 2d e1 cc bd 85 0f a1 be
       -0.17558876 -0.20097059 -0.10003886 -0.31457153
000080 d3 13 d5 3d 26 16 86 be 2c 21 a8 be 1f 93 67 be
       0.10404172 -0.26188773 -0.32837808 -0.22614716
000090 76 0e 4a bd 04 c1 79 3e 27 b2 0b 3e 84 98 5c 3d
       -0.049330197 0.24390036 0.13642178 0.053856388
0000a0 b4 ec 1f 3d 28 ca 46 be ea 70 50 3e e9 49 0a be
       0.039044097 -0.19413054 0.20355573 -0.13504757
0000b0 a5 78 03 be 8a 27 98 be 85 08 f8 be cf 5c 8d 3e
       -0.12838991 -0.29717666 -0.48444 0.2760987
0000c0 b2 33 26 be 45 4f 3e bd c0 99 2c 3e b5 73 35 be
       -0.16230658 -0.046462316 0.16855526 -0.1771992
0000d0 b9 dd 29 3d da e7 0d 3e 54 6c 99 3c 09 5f bd 3e
       0.041471217 0.13857976 0.018728413 0.3698657
0000e0 32 2c 62 3e ea f1 38 bd 85 c7 90 3b 8e b0 9d bd
       0.22087172 -0.045152582 0.004418316 -0.07699691
0000f0 0a a8 ce 3d f5 91 2f 3d 80 61 40 bd 5b e4 b9 bd
       0.10090645 0.042863805 -0.046967983 -0.090767585
000100 8d d4 2b 3e 84 4e 87 3e 06 4b a4 3d 03 eb 86 3d
       0.167803 0.2642709 0.08022122 0.06587794
000110 76 58 18 3e ac 7f 32 3e 99 71 32 3e 1f f5 f7 bb
       0.14877495 0.17431515 0.17426147 -0.0075670625
000120 f7 29 94 bd f2 3f ff 3b 6a 99 de 3d 14 dd 35 3e
       -0.07234567 0.0077896053 0.10869105 0.17760116
000130 a0 46 8e 3d 40 08 9c bd e4 27 c2 3d fe b2 29 bf
       0.069470644 -0.07618761 0.09480265 -0.66288745
000140 66 a3 31 3d 79 04 c9 3e 01 52 28 3d b2 ad 48 bf
       0.04336872 0.39261225 0.04109383 -0.7839004
000150 05 78 90 3d 52 d9 5a bd 89 55 9a 3c 8e 7f 1d 3d
       0.07054142 -0.05342991 0.018839614 0.038451724
000160 c3 6d d6 bb 8e 3e f2 3b 5a 03 a4 bd a8 3e 18 3e
       -0.0065438463 0.007392711 -0.08008452 0.14867651
000170 24 7d 4d 3e 9d 9c 58 3d 82 3e 99 be 77 ca c0 3d
       0.20067269 0.052883733 -0.29930502 0.09413617
000180 3f 84 13 3e cd 48 12 bd dd 41 7c bd a4 96 35 be
       0.14405917 -0.03571396 -0.06158625 -0.17733246
000190 70 28 31 3e 19 44 53 3e f0 33 90 bd 3b 1f 18 be
       0.17300582 0.20631446 -0.07041156 -0.14855663
0001a0 2e a2 c4 be 91 4a d6 3d 07 3d bc 3d a0 b3 14 be
       -0.38404983 0.10463441 0.091913275 -0.14521646
0001b0 b2 e2 d3 bd 20 17 e6 bc 46 81 2a 3b f6 33 79 3d
       -0.10345973 -0.028087199 0.0026016994 0.06084057
0001c0 20 97 63 3d 9f d2 03 3e a0 1d 1e 3e d9 c0 64 bd
       0.055564046 0.12873314 0.15440989 -0.055847976
0001d0 61 fd 4f 3d fe 51 15 3b f3 9c be 3d 2c a2 dc 3d
       0.05077875 0.0022784467 0.093072794 0.10773119
0001e0 1e 0e 8d 3d c2 f3 02 bd 9b 27 0c 3d ea 7c 80 3d
       0.06887458 -0.031970747 0.03421746 0.062738255
0001f0 4a 24 c8 3d cb ab 05 3d 25 01 4c bd b0 5c 5e bd
       0.097725466 0.032634538 -0.04980578 -0.054287612
000200 c3 35 eb 3c 03 8f 95 bc b4 91 71 bd 87 a4 af 3e
       0.028712159 -0.01825667 -0.058976844 0.34305212
000210 5b 7c 51 bf 7e 4e c0 be e6 54 86 be 11 00 eb bf
       -0.81830376 -0.37559885 -0.26236647 -1.8359395
000220 ca ff 4c 3c f6 5d bb 3d b1 99 97 3d 5b 02 91 3d
       0.012512157 0.09148781 0.07402361 0.070805274
000230 67 41 88 3d cf 96 52 3d d1 55 81 3e e1 d8 9f bc
       0.066530995 0.051413354 0.25260785 -0.019512596
000240 fd 4c 19 bd df 8d 2d bd 4e a1 4d 3b cf 36 31 ba
       -0.037426937 -0.042371627 0.0031376663 -0.0006760181
000250 0c e9 ea bc fc 5e 04 be a4 e3 0d be 1c 9e 0c be
       -0.028675579 -0.12926859 -0.1385637 -0.13732189
000260 f6 18 2f be 64 20 02 3e eb 5e eb 3d 86 c4 98 bd
       -0.17099366 0.12707669 0.114927135 -0.07459359
000270 0d cb 2f bd 30 b7 e7 be 92 f3 cd bd 3b fe a0 3d
       -0.042918254 -0.45256948 -0.10056223 0.078609906
000280 f7 5b 15 bc 67 06 00 be 1a 97 83 bc c2 c4 eb bd
       -0.009116164 -0.12502442 -0.016063262 -0.11512138
000290 50 aa a5 bd 9b c8 ee 3c 29 f2 a2 3d 03 2d a6 3e
       -0.08089125 0.02914839 0.07956345 0.32456216
0002a0 0f 50 fd bd 04 1a 7d 3d 37 dd c9 3d 74 eb 15 3d
       -0.123687856 0.06179239 0.098566465 0.0366015
0002b0 52 f8 2f 3e f2 bb 7c 3e a9 96 d2 be 71 73 26 be
       0.1718457 0.2468107 -0.4113057 -0.16254975
0002c0 cb c9 87 be c4 61 6d bf 3b d2 8b bd 6c cf b8 3d
       -0.26521143 -0.92727304 -0.06827208 0.090239376
0002d0 cd 58 ce 3c 99 98 2d 3e 45 99 a2 3e 10 e5 a1 3c
       0.025188828 0.16952743 0.3175756 0.019762546
0002e0 b4 2f 01 bc 47 f8 79 3d 66 d4 bd bd 32 9a 26 3d
       -0.0078849085 0.06102779 -0.092690274 0.040674396
0002f0 52 ba 1f bc da 94 56 3c 18 a7 ae 3e 60 18 4f 3d
       -0.009749012 0.013097012 0.34111857 0.050560355
000300 a4 be b2 be 25 95 74 be 62 0d 4c bf 36 88 cc bc
       -0.34911072 -0.23885019 -0.7970792 -0.024967294
000310 e9 6e 43 3d c3 78 2b bd 4a d6 8a bc 27 fd 8e 3d
       0.047713194 -0.041863214 -0.016947884 0.06981879
000320 4b 00 b9 3d fa ed a3 3d 97 4d c4 bd c4 78 cd bd
       0.09033259 0.08004375 -0.095851116 -0.100328
000330 54 fb 81 be a2 1e 4f 3e 52 97 b3 3d bb 72 69 3d
       -0.2538706 0.20226529 0.087690964 0.05699418
000340 c3 ee df 3d 53 6f 7e 3d 94 66 9e 3d 13 e7 61 bc
       0.10934212 0.062117886 0.07734409 -0.013788003
000350 a8 2c 87 bb d8 68 82 3d 33 11 3f 3d 93 fd 35 3e
       -0.0041251965 0.063676536 0.04664726 0.17772512
000360 d9 80 4b be ef 8a f0 bd 53 15 26 3e e8 11 1f 3d
       -0.1987337 -0.117452495 0.16219072 0.038835436
000370 9a 79 e2 bc 3e 7d 1f 3d 24 f0 70 3e 28 8f 49 be
       -0.027645875 0.0389378 0.23529106 -0.19683516
000380 17 48 1d be 85 7d 72 be cd 01 92 bf d6 c7 e8 ba
       -0.15359531 -0.23680694 -1.14068 -0.0017759751
000390 b5 3c 08 be c5 f0 3d bd 53 20 ed 3c 54 46 75 3d
       -0.13304408 -0.046372194 0.028946077 0.059881523
0003a0 12 50 a7 bd 96 ad 30 3e 64 99 c8 3d 51 24 14 3d
       -0.08169569 0.17253718 0.09794882 0.036167447
0003b0 9e 6c b6 3d 49 f5 35 be fe 98 37 3c a8 d1 cb bb
       0.08907436 -0.1776935 0.01120591 -0.0062200613
0003c0 5a 2f 2c 3d c9 da 8f 3e 01 7b 03 be 02 8b 16 bd
       0.042037345 0.28096607 -0.12839891 -0.036753662
0003d0 e8 e4 c8 3d 65 a0 7e bd 75 4e 1c 3d 4e a0 e1 bb
       0.098092854 -0.062164683 0.03816076 -0.006885565
0003e0 dc df 3d bd a3 27 93 bd 7c 96 38 bd 74 e4 8d 3d
       -0.046356067 -0.071852945 -0.045065388 0.069283396
0003f0 85 7a 97 3d c8 fa 1a be 2f 78 34 3d e1 60 dd 3c
       0.073964156 -0.15134728 0.04405993 0.027023735

fc1.bias f4 [64]
000000 94 fd 94 3d e7 d3 34 3d 22 e1 ae bd dd cb 8b bc
       0.07274929 0.0441474 -0.085390344 -0.017064983
000010 ce 5a 33 3e 2c 7b ed 3c 5a 88 c4 bd 81 58 9e 3d
       0.17515108 0.028989397 -0.095963195 0.077317245
000020 b7 0f 9d bc 25 5b 13 be cd dd 36 3e bf 9f 70 3e
       -0.019172532 -0.14390238 0.17858048 0.23498438
000030 aa f9 ce 3d d8 4c 21 3d 04 5b b8 bd 15 b9 91 bd
       0.101062134 0.039379925 -0.09001735 -0.0711538
000040 69 0c bb 3d 34 ae 9e 3c 5d a1 7a 3b 31 e7 42 be
       0.091332264 0.019370176 0.0038243153 -0.19033505
000050 71 84 38 be 66 0c 26 bc 62 2b 5e bc 5d 87 eb bd
       -0.18019272 -0.010134792 -0.013560148 -0.11500428
000060 1b b4 11 be 47 ca 1d 3e 69 d7 98 bd 7f 81 82 bd
       -0.14228861 0.15409194 -0.07462961 -0.06372356
000070 7a 6d 31 3e f5 67 df 3d 49 53 b4 3b 70 20 53 be
       0.17326918 0.109085 0.0055030924 -0.20617843
000080 60 6b 30 3e 64 ae bf 3c e2 1d fe bd bb d6 70 3d
       0.1722846 0.023398586 -0.124080434 0.058798533
000090 9d 56 64 bd fb d3 8b 3c 1b 4f 33 bc ee b9 3d be
       -0.055746663 0.017068854 -0.010944153 -0.18527958
0000a0 33 5e 03 be 48 a8 cf bc 9c fc e9 bd 5e 9c 91 3e
       -0.12828903 -0.025348797 -0.114251345 0.2843961
0000b0 bb fe 98 bc fb 82 f8 bd 66 86 a1 bc bc ee 25 be
       -0.018676152 -0.121343575 -0.019717406 -0.16204351
0000c0 aa b4 27 be 29 41 a5 3b b6 75 17 be d3 be 37 3d
       -0.16377512 0.005043168 -0.14790997 0.04485972
0000d0 7d e2 4a bb 77 f5 d8 bd 4f bb 32 be f5 b7 2b 3c
       -0.0030957751 -0.10593694 -0.17454265 0.0104808705
0000e0 fc 95 9a 3d 1b 93 00 3d 5f 30 8c bd 17 e9 44 bd
       0.075481385 0.03139029 -0.068451636 -0.048073854
0000f0 60 ad 19 3d ea 7d 94 3d 5d e6 2c 3c 8b 03 0b bc
       0.03751886 0.07250579 0.01055297 -0.008484731

fc2.weight f4 [64, 64]
000000 95 cb 67 3e b8 c2 06 3d ad 79 39 3e 45 37 3d 3e
       0.22636254 0.032900542 0.18112822 0.18478115
000010 f4 77 d4 3c 50 ec 25 be fa 91 7a bd f0 e4 f9 3d
       0.025936104 -0.16203427 -0.06117437 0.122018695
000020 6c e4 2e 3e 6c ee 10 be 47 ea 9d 3d 3a e9 0b bd
       0.17079324 -0.1415345 0.077107005 -0.03415797
000030 9e 8d 54 be 12 34 f6 bc 5a be 06 be 6a 9a ae bd
       -0.20757148 -0.030054126 -0.13158551 -0.08525546
000040 09 a4 0a bb 7f 4c 70 3d 27 7f 36 be ec 75 c6 bd
       -0.0021154901 0.058666702 -0.17821942 -0.096904606
000050 c7 ad 0c 3d bf a6 0c 3e 7e 3a c7 3d e4 ec f4 bd
       0.034345414 0.13735484 0.097279534 -0.11959246
000060 44 c1 92 be 5d 56 b0 bd cd 62 4c 3e 27 b3 a8 bd
       -0.28663075 -0.086102225 0.19959565 -0.082372956
000070 5c 86 ad 3d 50 ba 8f bd 26 67 13 3d 1a ec 51 be
       0.08472893 -0.07017958 0.035987042 -0.20500222
000080 a1 96 30 3e 36 3d 13 3d e3 ba fe 3d 91 20 0c 3e
       0.1724496 0.035947047 0.124379896 0.13684298
000090 a9 01 1b be 4f 59 83 3e 26 23 4c 3e d1 35 d5 bd
       -0.15137352 0.25654075 0.19935283 -0.10410655
0000a0 49 c8 c3 bc fe 3e d0 3d 08 da 06 3d 51 3f fd bb
       -0.023899214 0.10168265 0.032922775 -0.007728495
0000b0 ff 87 ad bd 9c 20 d0 bd 0f 04 90 be 11 99 7b 3d
       -0.08473205 -0.1016247 -0.28128096 0.061425272
0000c0 cb 94 66 be 99 1c 6f 3e 15 93 53 3c 1e a5 c6 3d
       -0.22517698 0.23350753 0.012913485 0.09699462
0000d0 1b c7 1b be 9d e5 9f bd 8a 08 60 bd f6 54 42 be
       -0.15212671 -0.07807467 -0.054695643 -0.18977723
0000e0 16 98 25 3d dd 3e 52 3d 48 fc c9 be 86 3e be 3d
       0.040428244 0.051329482 -0.39450288 0.09289269
0000f0 72 28 d6 3d 31 95 c5 3d 91 1e 75 be 10 00 fb bd
       0.10456933 0.09647597 -0.23937441 -0.12255871
000100 5f 26 17 3e c3 de f6 3d 81 8e e5 bd 2b 0d 83 3e
       0.14760731 0.12054207 -0.11208821 0.25595984
000110 86 92 93 bd d0 3e 3b 3d 55 2c 47 3d 99 fa 77 bd
       -0.072056815 0.0457142 0.048626263 -0.060541723
000120 58 0a 8a bd c6 ac b1 bc 5c 55 bc bd a6 39 bc 3e
       -0.06740254 -0.02168883 -0.091959685 0.36762732
000130 36 dd 3a 3c b4 31 55 3d 04 47 4c 3d df fa 17 3e
       0.01140528 0.052049354 0.049872413 0.14841793
000140 c5 d5 f8 3d be a2 cd 3d 3e 9b b4 bd 42 ce ed bd
       0.12150148 0.10040806 -0.088186726 -0.11611606
000150 01 3c 0a 3e 3d 4f 49 3e 1b 56 f3 3b 5a 51 2c 3e
       0.13499452 0.19659133 0.007426036 0.16827908
000160 a0 77 56 3d 89 66 95 3d ed 1b 2c 3d 00 d8 8e 3c
       0.052360177 0.07294948 0.04201882 0.017436981
000170 f1 c2 09 be 9f 89 c9 3c c4 d9 b5 bb 61 cc 3a 3d
       -0.1345327 0.024601756 -0.0055496413 0.045605067
000180 a4 06 21 be 5b 66 7d 3e 8e e6 1c 3c bc 66 ba 3c
       -0.1572519 0.24746077 0.009576453 0.022754066
000190 d3 01 8a 3c fc 05 74 bd 8a 75 24 3e 78 fd c4 bd
       0.016846573 -0.05957602 0.16060463 -0.09618658
0001a0 25 07 19 bc 30 9e 88 3c cd 6a 1c be c0 7b 04 be
       -0.009340082 0.016676992 -0.15275116 -0.12937832
0001b0 70 e6 83 be 92 d2 c7 bd a8 34 9e be bd cb 29 be
       -0.25761747 -0.0975696 -0.3089955 -0.16581626
0001c0 17 c7 6f 3d 77 8e 8c bc c3 4a 48 3d a2 51 0b 3e
       0.058539476 -0.017157776 0.048899423 0.13605359
0001d0 33 da f9 3d d4 41 b0 bd 05 04 a8 bd d8 a9 53 bd
       0.12199821 -0.08606306 -0.08203892 -0.051675647
0001e0 1b 60 49 be 53 07 05 3e 5f db 99 3e 22 0d 28 3d
       -0.19665568 0.12991075 0.3005018 0.04102815
0001f0 f3 c9 18 be 0f 16 b0 bd 4b 30 f6 bd d4 66 84 bd
       -0.14920788 -0.08597957 -0.1202093 -0.064649254
000200 e6 e3 6e bd 96 6e 8e 3b 43 66 8e be 2d 40 5c 3e
       -0.05832281 0.004346679 -0.27812394 0.21508856
000210 50 ad bc 3d 4f b9 6d 3d 8b 78 46 be df 0a c6 bd
       0.09212744 0.058038052 -0.19381921 -0.09670042
000220 5e 52 1b 3e c4 39 1f be 65 cb 50 bd b0 98 ab 3e
       0.1516814 -0.1554938 -0.050975222 0.3351493
000230 2e 7f a7 3d 0d 3a ee 3d 1c 96 b2 bd d2 60 cc 3c
       0.081785545 0.11632166 -0.08720037 0.024948511
000240 46 cf 34 be ef 39 31 3e 5d e8 c0 3c 5f 86 79 be
       -0.17657194 0.17307256 0.0235483 -0.24367665
000250 7e 5c 9c bc a9 39 38 3e 1e 41 85 bc 09 fd 19 3e
       -0.019087072 0.17990746 -0.016266402 0.15037932
000260 ad 22 9b 3d 9c 5f 8e 3d 4b 64 19 3e 5e c8 75 3e
       0.07574973 0.0695183 0.14979665 0.24002215
000270 b9 5b a5 bd 72 41 60 3e 83 97 53 3e 24 94 87 bd
       -0.08074135 0.21899965 0.20663266 -0.066200525
000280 6a 05 76 bd 0a 39 ef bd ec 7d 62 be c3 a1 d0 3c
       -0.060063757 -0.11680801 -0.22118348 0.025467759
000290 4c 27 53 bb 61 28 0b be 9b c9 97 3e 71 63 d3 3c
       -0.0032219468 -0.13589622 0.29646 0.025804253
0002a0 b3 24 d1 3d f9 7b 49 3d 45 fc bb be 8a 7f 9b bd
       0.10212078 0.049190495 -0.36715904 -0.075926855
0002b0 43 46 3f bc 69 da 5c be 1f 67 28 bd a5 a5 4d bd
       -0.011674467 -0.21567692 -0.04111397 -0.0502068
0002c0 5f c7 a8 bd 82 46 96 bd 14 01 7d bb 69 a4 90 3d
       -0.08241152 -0.07337667 -0.003860538 0.07062609
0002d0 df c2 56 3d 0c b1 b9 3d 77 bc 02 be 1a 30 fe bc
       0.052431937 0.09066972 -0.12767206 -0.031028796
0002e0 6a 11 6b bd 5b ef 8c bd f1 0f 8e 3e 3f 10 a4 3d
       -0.057389654 -0.06881591 0.27746537 0.08010911
0002f0 d0 ca c0 bd 16 8e 3b 3d 03 a8 27 3c 75 55 91 3c
       -0.094136834 0.0457898 0.010232928 0.017740944
000300 d6 be 7e 3c 2e 30 9f bd 50 d4 86 3d 58 a0 5c bd
       0.0155484285 -0.077728614 0.06583464 -0.053863853
000310 60 af e8 3d 65 5d 67 3d ba 18 79 be e4 aa 67 3d
       0.11361575 0.056485552 -0.24325839 0.05655946
000320 93 f4 7c bb ef 4f 06 bd c3 e0 7e bd 8e 5c a0 3e
       -0.0038597926 -0.032791074 -0.06222607 0.31320614
000330 82 d0 e3 bc 83 bb 6e 3e 8e cc 9c 3d 80 c8 d1 3d
       -0.027809385 0.23313718 0.07656203 0.102433205
000340 bf 8e bd bc 4d 86 3c 3e 27 3c 98 3b fc 7a ae be
       -0.023139356 0.18410607 0.0046458426 -0.34078205
000350 20 f5 fc 3c 14 f0 5f 3e 31 be aa 3d dd 94 e7 3d
       0.030878603 0.21868926 0.083370574 0.1130769
000360 f0 e7 d5 3d 83 7b bf 3d 08 bb 27 be 99 f9 02 3e
       0.10444629 0.0934973 -0.1637994 0.12790526
000370 0f d8 53 3e 7f d3 18 3e d3 d6 f5 3d 58 b6 59 be
       0.20687889 0.1492443 0.12003865 -0.21260965
000380 88 98 67 bd d4 b9 a2 3e a2 47 7a 3e 7d e5 12 3e
       -0.05654195 0.317824 0.24441388 0.14345355
000390 61 8c a3 bc 4c 75 50 3e db 9e 20 3e 0a b9 2e be
       -0.019964399 0.20357245 0.15685599 -0.17062774
0003a0 08 9d 3f 3d ac 8a ba 3e 94 34 16 3e bc ee ae bc
       0.046780616 0.36433923 0.14668494 -0.021354072
0003b0 46 96 05 bd 7b aa 7a 3d 54 75 bd 3d d6 f5 46 bd
       -0.032614015 0.06119774 0.09250894 -0.04857429
0003c0 ad 0a 60 be de a6 ea bb b5 61 40 bd 6c 94 60 3d
       -0.21879072 -0.0071610054 -0.04696818 0.054829046
0003d0 20 f4 7c bd 19 85 82 3e 82 b6 41 be 5d c3 b8 3d
       -0.061756253 0.2549217 -0.18917277 0.090216376
0003e0 be 99 ca 3c 4b b5 c6 bd 76 69 c8 3d 81 35 35 3e
       0.024731513 -0.09702548 0.0978574 0.17696191
0003f0 e0 35 81 be 31 dd 45 3d c7 ad 12 be 8b 57 aa bc
       -0.25236416 0.048306648 -0.14324103 -0.020793697

fc2.bias f4 [64]
000000 7e 0e b2 3c 41 d9 26 3d 1d 8b 38 3e b7 a2 63 bd
       0.021735426 0.040734533 0.18021818 -0.0555751
000010 8b fd 0c 3e ce 99 8d be 93 a8 b4 bd cc 71 3a bc
       0.13768594 -0.27656406 -0.088212155 -0.01137967
000020 93 ea 96 3d ce 8b e0 3e ad a9 6e bd 92 b6 53 3e
       0.0736896 0.43856663 -0.058267284 0.20675114
000030 be 22 d5 3d 3e 45 94 bd 75 d0 3d 3c 70 50 67 bc
       0.10407017 -0.072397694 0.011585345 -0.014118299
000040 64 6d 55 3d a8 71 dd 3d 49 3a 85 3c fc 69 0a 3e
       0.052106276 0.10812694 0.016263144 0.13516992
000050 1f e3 d3 3c 4d 05 00 3f 11 7c 2a be 5a ad 2c be
       0.025865136 0.5000809 -0.1664889 -0.16863003
000060 28 99 1f be 7f 1a 06 be 07 a2 b5 3d c2 3f 19 be
       -0.15585768 -0.13096045 0.08868795 -0.14965728
000070 50 1e 24 bd b1 2b 6b 3e 67 2c d1 3d 9c 46 36 3c
       -0.04006797 0.22965886 0.10213547 0.011125233
000080 8e b2 94 3c a1 1c 6f 3e 7c 88 33 bb 99 48 dd bd
       0.018151548 0.23350765 -0.0027394583 -0.108048625
000090 68 f4 97 3c b7 3c 26 be cd cf e8 3d 01 00 65 bd
       0.01854916 -0.16234098 0.1136776 -0.055908207
0000a0 1d 2c 19 be 1a 27 08 3f d6 de 7c 3e ed db 95 bc
       -0.14958234 0.53184664 0.2469438 -0.018293345
0000b0 c9 09 de 3d 08 85 83 bd 0e bb 55 3e e3 21 8d bd
       0.1084171 -0.06421858 0.20872137 -0.06891229
0000c0 86 a1 67 3d 9b 6e 2a be 2c a9 97 bd a1 d2 ba 3e
       0.056550525 -0.16643755 -0.07405314 0.36488822
0000d0 d0 c8 3b bc c4 b8 87 bd 64 2f 8f 3e 45 c2 5f bd
       -0.011461452 -0.06627038 0.27965844 -0.05462863
0000e0 37 e6 23 be 4e f6 ad bd 43 af 08 be 55 d0 88 bd
       -0.16005789 -0.084942445 -0.13348107 -0.06680361
0000f0 bb 47 04 3d 90 d3 58 3e 21 54 b8 3d 45 45 e8 bd
       0.03229497 0.21174455 0.09000421 -0.11341337

fc3.weight f4 [4, 64]
000000 71 c1 0c be bb b5 0f 3e d1 a5 53 3e 8a b8 86 be
       -0.13745667 0.14034168 0.20668723 -0.26312667
000010 10 d0 7c 3e 30 e0 8d be f6 b4 85 3d bc 27 ba be
       0.24688745 -0.27710104 0.06528656 -0.3635844
000020 76 7c 9e 3e 5f d8 0b 3e 38 ad 78 be 5f 68 86 3e
       0.3095433 0.13656758 -0.24284828 0.26251504
000030 ab 78 27 3e e2 27 20 3d 3b 78 53 be 1d f1 53 3d
       0.16354625 0.039100535 -0.20651333 0.051743615
000040 c7 59 94 3e 32 29 82 3e 51 12 ba 3e 33 71 3b 3e
       0.28974745 0.25422055 0.363421 0.18304901
000050 35 83 d2 3e a0 af 10 3e ef 1b 55 bd 7e 30 8a be
       0.41115728 0.14129496 -0.052028593 -0.26990122
000060 b8 2d 62 be 94 7e 50 bd f3 2d 17 3c 53 6c 25 be
       -0.22087753 -0.050901964 0.009227264 -0.16154604
000070 f7 8e 4e 3d dd 29 40 3e 85 a9 0a bf 21 bd 0c 3e
       0.05042931 0.1876597 -0.54164916 0.13744022
000080 08 ca 19 3e 56 4c 0d 3e 8c 80 31 ba 7e af 26 3e
       0.15018475 0.13798651 -0.0006771169 0.16277882
000090 0e 85 8b 3e 21 03 07 be 90 00 e8 3d 29 ff a2 3e
       0.2724995 -0.13184787 0.11328232 0.31835297
0000a0 9b 71 1e 3d 83 23 45 3e 16 18 30 3e a6 f1 e8 3e
       0.03868256 0.19251828 0.17196688 0.45496863
0000b0 3b a4 0e 3e 18 1e 9f 3d 29 73 f4 3d ca ce e1 3e
       0.13929836 0.07769412 0.119360276 0.4410308
0000c0 c1 28 80 3e 53 e1 28 bc ae bd 03 be ce cc 6b 3e
       0.25031093 -0.010307628 -0.12865326 0.23027346
0000d0 cc f9 65 3e a2 ad 88 be a8 54 14 3e ad e3 c4 bc
       0.22458571 -0.2669497 0.14485419 -0.024034346
0000e0 f4 0b 56 be 5a 65 41 be d7 a5 90 be 6d 03 38 3e
       -0.20902997 -0.18886319 -0.28251526 0.17970057
0000f0 17 20 77 3c 6f e6 29 3e 70 77 1e 3e b8 e1 12 3e
       0.015083334 0.1659181 0.1547525 0.14343917
000100 7c 70 e7 3d 09 af 13 3d 7a bc 8d 3e c9 b2 46 be
       0.113007516 0.0360556 0.2768286 -0.19404139
000110 8b 29 84 3e 4f 53 27 be db 11 7f 3e 0c c5 71 be
       0.25812945 -0.16340373 0.24909155 -0.23610324
000120 9a 20 a7 3e 4c 38 0c 3e e3 fb 82 3e b4 e7 5b 3e
       0.3264206 0.1369335 0.255828 0.21475106
000130 69 c6 c9 3c 53 3c f2 3d d5 e1 d2 3c bb 42 19 be
       0.024630742 0.11827912 0.02574245 -0.14966862
000140 37 d3 b9 3d c7 1d 23 3e d5 78 c8 3e e9 26 32 3e
       0.09073489 0.15929328 0.39154688 0.17397656
000150 88 01 d5 3e a1 f8 39 3e 5a 13 d1 bd e2 b5 84 be
       0.4160273 0.1816125 -0.10208769 -0.25920016
000160 d5 74 01 be db 84 97 bd 95 ac da 3d 06 f7 45 bd
       -0.12642224 -0.07398387 0.10677449 -0.048331283
000170 4d 97 32 3e 1c 51 2f 3e 73 83 79 3d c3 2b 1a 3e
       0.17440529 0.17120785 0.060916375 0.15055756
000180 79 74 4d 3e 51 a4 8e 3c 6d c1 25 3e 6c 3e d9 bc
       0.20063962 0.017412337 0.16187067 -0.026519023
000190 5a 66 0d 3e 0d f1 d4 be b7 3d 2f 3e fa 46 b6 3e
       0.13808575 -0.41590157 0.17113386 0.35601026
0001a0 3a cc 25 3e bc 87 2d 3e 35 4b 2f 3e b2 d5 97 3e
       0.16191188 0.1694631 0.17118533 0.29655224
0001b0 a7 a1 47 3e 32 83 62 bc 0a 6e 0c 3e 2c 65 76 3e
       0.19495259 -0.013825225 0.13713852 0.24062032
0001c0 d6 bb 1e 3f 28 0c 8e b9 6a 44 82 be ca a6 16 3e
       0.62005365 -0.00027093408 -0.2544282 0.14712062
0001d0 4f 5e 97 3e d3 1b 37 3e c2 87 4f 3e d4 80 37 3e
       0.2956414 0.17881708 0.20266631 0.17920238
0001e0 d4 6d 3c be 84 fb 8f be 54 61 f0 bd cc 86 7f bc
       -0.18401271 -0.2812158 -0.11737314 -0.015596103
0001f0 3b e2 66 be f8 b1 33 3d 1a fa 29 be 01 72 8d 3e
       -0.22547238 0.043870896 -0.16599312 0.2762604
000200 5c 3d b3 3d b3 1a c1 3d a8 9c 28 3e be dd 24 3e
       0.08751938 0.094289206 0.1646601 0.16100213
000210 0d 4b a2 3e be 04 40 be 1e 74 3a 3e 25 b0 98 bd
       0.31697884 -0.18751809 0.18208358 -0.07455472
000220 7e 49 2d 3e 65 da 08 3e 44 91 bb be ee 41 99 3e
       0.16922566 0.13364561 -0.36634266 0.29933113
000230 17 6e 39 3e ce 68 15 bf e5 7e de be bb 1b 31 3e
       0.18108402 -0.58363044 -0.43456188 0.17295735
000240 d8 d2 e2 3d 03 12 87 3c 4f 20 34 3e 99 4d a2 3d
       0.110753715 0.01648808 0.1759045 0.07924957
000250 68 02 0b 3f 02 0d 75 3e 93 a2 d1 be 85 98 9c be
       0.54300547 0.23930743 -0.40944347 -0.30585113
000260 9d b7 a6 bd 77 80 86 bd 36 3a 33 3e 06 22 84 be
       -0.0814049 -0.065674715 0.17502674 -0.25807208
000270 93 29 80 3e c8 ac 5b 3e b4 e3 8c be ae 5d 43 3d
       0.2503172 0.2145263 -0.27517474 0.04769676
000280 4c 64 06 bc 35 6b d7 3d ba 9c 57 3e cc 94 a7 3e
       -0.008202624 0.10518495 0.2105588 0.3273071
000290 ce 89 5e bc 4f 57 9d bd 3f 25 07 3e 24 9f ee bd
       -0.01358266 -0.076826684 0.13197802 -0.116514474
0002a0 2f 63 07 3d f3 e3 41 3e c8 53 70 3e c7 de 1d 3c
       0.033053573 0.18934612 0.2346946 0.009635634
0002b0 cd 6f 42 3e db 2e 1e 3d d8 a3 e3 3d af 93 ee 3e
       0.18987961 0.038618904 0.11115235 0.4659705
0002c0 78 1c 47 3f d6 09 6e 3d 03 41 e7 be 2b a4 a3 3e
       0.77777815 0.05811485 -0.45166788 0.31961188
0002d0 23 5a 5a 3e ab 62 b1 3e 1e 32 ff 3d 7a 8a 81 3d
       0.21323447 0.3464559 0.12460731 0.063252404
0002e0 6b 90 99 bd 03 26 1a be ee 41 56 be 48 a8 39 be
       -0.07498249 -0.15053563 -0.20923588 -0.181306
0002f0 b7 ed 8e 3c 26 a5 2f 3e e7 38 09 be 4a 16 d0 bb
       0.017447336 0.17152843 -0.13400613 -0.0063503133
000300 5a 4b 24 3e 1a 93 75 3e 06 d2 b9 3d a0 38 2e be
       0.1604437 0.23981896 0.09073262 -0.17013788
000310 28 91 9c 3e 1d 2c 27 be 00 96 f3 bd c4 30 64 be
       0.30579495 -0.16325422 -0.118938446 -0.22284228
000320 65 ef 1a 3f c7 3e 46 3e ee d8 d8 3d 77 12 3b 3e
       0.6052154 0.19359885 0.10588251 0.18268763
000330 8a 14 17 3e 2c b8 21 3d 4a 46 ee 3d 37 ff 3b be
       0.14753929 0.03948228 0.116345 -0.18359075
000340 1e 25 ae 3e 85 55 82 3c 79 f4 ca 3e 19 12 68 3e
       0.34012693 0.01590992 0.39639643 0.22663154
000350 cd e4 a2 3e f5 77 56 3e ee 2d 4d bc dc 68 1d be
       0.31815186 0.20944197 -0.0125231575 -0.15372032
000360 3e 6f cc bb 9d c7 86 bd 60 e7 13 be 91 4e 43 bd
       -0.006238847 -0.06581042 -0.14443731 -0.04768235
000370 36 6c 28 be 92 ec b1 3d ad a6 c0 be a7 61 1c 3e
       -0.16447529 0.086877 -0.37627164 0.15271626
000380 dc 5b c7 bd 44 f0 cd 3d a9 4f ea 3c 78 d2 c5 3d
       -0.09734318 0.10055593 0.028602438 0.09659284
000390 eb a3 8a bb af 45 9f 3e f2 3a 4f 3e c3 60 34 3f
       -0.0042309663 0.31107852 0.2023733 0.70460147
0003a0 6e bd cc bd 19 3c 63 3e eb d6 a3 3e 78 f4 96 be
       -0.09997068 0.22190894 0.31999907 -0.2948339
0003b0 9d e1 99 3e f0 2b cc bd e9 f9 bd 3d d8 20 14 3e
       0.30054942 -0.09969318 0.09276182 0.14465654
0003c0 84 0c a4 bd 49 08 80 be 69 5f 74 3e 30 b4 62 3e
       -0.080102 -0.2500632 0.23864521 0.22139049
0003d0 7c 3b 38 bd 8e 3e 95 bc d8 2e 5c 3e 58 70 6d 3e
       -0.044978604 -0.018218305 0.21502244 0.23187387
0003e0 bf 97 e0 be e9 b1 05 be 96 fa dc be e8 06 40 3c
       -0.43865773 -0.13056149 -0.43159932 0.011720397
0003f0 17 b7 69 be 26 0a 26 3d c0 95 bc be 5b dc a1 3e
       -0.2282375 0.040537022 -0.36833 0.3161343

fc3.bias f4 [4]
000000 ae 11 a0 3e 95 f4 8f 3e 93 a6 40 3e 48 63 38 3e
       0.3126349 0.2811629 0.18813543 0.18006623
