checkpoint_actor.pth (torch_old, 86503 bytes, 6 tensors)

fc1.weight f4 [128, 33]
0	0x3d81d8d9	0.063401885
1	0x3f5af4b7	0.85529655
2	0xbfa23bf1	-1.2674543
3	0xbf262b6d	-0.6491001
4	0x401aafd7	2.4169824
5	0x3f856011	1.0419942
6	0xbf343b9f	-0.70403475
7	0xbeb70e7e	-0.35753244
8	0xbf5e9b1a	-0.86955416
9	0xbf67734b	-0.904103
10	0x3de24bee	0.11049639
11	0xbdd482c9	-0.10376508
12	0x3e98184d	0.2970604
13	0x3ce81a06	0.028332721
14	0x3f69cbaf	0.9132642
15	0x3f44d067	0.76880497
16	0xbe72dcc8	-0.23717034
17	0x4025ddcb	2.5916622
18	0xbfb22fdf	-1.3920859
19	0xbd60c8de	-0.054879062
20	0x3ed47b14	0.4150015
21	0x3e5ada7f	0.21372412
22	0x3f525f4d	0.8217667
23	0x3d9bb978	0.07603735
24	0x3e1ffa6c	0.15622872
25	0xbe630b5b	-0.221723
26	0xbdfa29f1	-0.12215031
27	0x3f2bd58b	0.67122716
28	0xbf864723	-1.0490459
29	0xba2cfc00	-0.000659883
30	0xbf2d2383	-0.6763231
31	0xbda72608	-0.08161551
32	0xc0b6609e	-5.699294
33	0x3f2defd6	0.67944086
34	0xbf1fb644	-0.6238749
35	0xbf48d966	-0.78456724
36	0xbeb463c2	-0.3523236
37	0x400c69ef	2.1939657
38	0x3e4e63a2	0.20155194
39	0xc026987a	-2.6030564
40	0xbdc30887	-0.09523111
41	0xbf297c56	-0.66205347
42	0xbd3a618c	-0.045503184
43	0xbd91573c	-0.07096717
44	0x3e21deec	0.15807694
45	0xbf06537b	-0.5247113
46	0xbfaf9bc0	-1.3719406
47	0x3ea6bd2e	0.32566208
48	0x3e78f53a	0.24312297
49	0x4029bfae	2.6523242
50	0xbff274e5	-1.8941923
51	0x3f2868da	0.6578499
52	0x3fa120b5	1.2588106
53	0xbd3512b0	-0.044207275
54	0xbf1a279f	-0.60216707
55	0xbd8a9917	-0.06767481
56	0xbe8088d8	-0.25104403
57	0x3e107772	0.14108065
58	0xbe59317e	-0.21210286
59	0x3f72c88b	0.94837254
60	0x3e93a919	0.2883995
61	0xbd3bec7a	-0.04587982
62	0xbc179960	-0.009252876
63	0xbe95a54d	-0.29227677
64	0xba087880	-0.0005205944
65	0xc048d295	-3.137853
66	0xbed7a85e	-0.4212064
67	0xbef8f9d4	-0.48628104
68	0xbfaaaf94	-1.3334832
69	0x3eed9128	0.46399808
70	0x3fd405a6	1.6564224
71	0x408a3232	4.3186274
72	0xc00eaa2c	-2.2291365
73	0x3f81843f	1.0118483
74	0xbf729286	-0.9475483
75	0xbee58147	-0.44825193
76	0xbdebe56a	-0.11518367
77	0x3ce62dcd	0.028098011
78	0xbe3617f0	-0.17782569
79	0x3f33660b	0.7007758
80	0x3eacc1a0	0.33741474
81	0x3e111dd1	0.1417153
82	0x3f2290fc	0.6350248
83	0xbe2ae452	-0.1668866
84	0x3f16b2d3	0.58866614
85	0xc06d2f27	-3.706003
86	0xbf1afa2a	-0.6053797
87	0x3ee24128	0.44190335
88	0x3e5f4c97	0.2180656
89	0x3ecd88e7	0.4014351
90	0x3cda255a	0.026629139
91	0x3dbf89ac	0.09352431
92	0xbe359733	-0.17733459
93	0x3f2f020d	0.68362504
94	0x3edbd07c	0.42932498
95	0xbd933f42	-0.071898
96	0xbf1d5f29	-0.6147333
97	0xbdb1453b	-0.08655783
98	0xc010e4b8	-2.26396
99	0x3e903fd0	0.28173685
100	0x3fa1fa9e	1.2654607
101	0xbf8ba207	-1.0908822
102	0x3dbb1f89	0.09136874
103	0x3eba6c7e	0.36410898
104	0xc02f7944	-2.7417765
105	0xbfe25564	-1.7682309
106	0x3f0b874b	0.54503316
107	0xbfaa86c7	-1.3322381
108	0x3ee59957	0.44843552
109	0xbe0b19d1	-0.13584067
110	0x3e83b3a9	0.25723007
111	0x3e0cf1b4	0.13764077
112	0xbf3709cf	-0.7149934
113	0xbf1cd68c	-0.6126487
114	0x3f5643ef	0.8369741
115	0xbe8635be	-0.26212877
116	0xbf8a65e7	-1.0812348
117	0xc06f7fc7	-3.742174
118	0x3e7c507e	0.2464008
119	0x3da7d451	0.08194793
120	0xbeb961e8	-0.3620751
121	0x3daf1292	0.08548464
122	0xbebba421	-0.36648658
123	0x3e1a56fb	0.15072243
124	0x3ecb96cf	0.39763495
125	0x3ddda062	0.10821606
126	0x3d4fcf03	0.05073453
127	0x3ed71825	0.42010608
128	0xbbc51e10	-0.0060155466
129	0x3cda3a23	0.02663905
130	0xbd067ae0	-0.032832026
131	0x409b1f28	4.8475533
132	0x3f4e7d26	0.8065971
133	0x3f5e6510	0.8687296
134	0x3f5cb7e7	0.8621811
135	0xbe1e6dc6	-0.15471563
136	0x3bb36420	0.0054745823
137	0xbf66b077	-0.90113014
138	0x3f3ad9a8	0.7298837
139	0xbf21b8eb	-0.6317279
140	0x3f37f494	0.7185757
141	0x3e07e09f	0.1326928
142	0x3e22df71	0.15905549
143	0x3da26d83	0.07931044
144	0x3e2e4a13	0.17020445
145	0xbf92e688	-1.1476603
146	0xbf891976	-1.0710895
147	0x3e249e3f	0.16075991
148	0xc03d2d6d	-2.9558976
149	0x3ecf7860	0.40521526
150	0x3eaa3507	0.33243582
151	0x3e69e54a	0.22841373
152	0xbd2116f7	-0.03932854
153	0x3f50c6b8	0.8155322
154	0x3e2d77c4	0.16940218
155	0xbec38860	-0.38189983
156	0xbea0ae80	-0.31383133
157	0xbe22fe83	-0.15917401
158	0x3ec6dc46	0.3883993
159	0x3f416c32	0.7555572
160	0xbf0312d8	-0.5120063
161	0x3c9f144c	0.019418858
162	0xbf3b9927	-0.73280567
163	0xbd7fa716	-0.062415205
164	0x408a98fa	4.331174
165	0xbebeb667	-0.37248537
166	0xbe506752	-0.20351914
167	0x3d3d6d88	0.046247035
168	0xc023e0a4	-2.560586
169	0xc034e5da	-2.826529
170	0x409615e8	4.690174
171	0x3f20d9de	0.6283244
172	0xbd90e9e6	-0.070758626
173	0x3f2bb54c	0.6707351
174	0xbf3fd3f0	-0.74932766
175	0x3d75e559	0.060033176
176	0xbe2ddcd9	-0.16978778
177	0x3e492d65	0.19646223
178	0xbf6836e2	-0.90708745
179	0x3f9d3839	1.2282783
180	0xbd02acef	-0.031903204
181	0x3f207d33	0.6269104
182	0xbe40a477	-0.18812738
183	0xbffeed6e	-1.9916208
184	0xbe9c4ed5	-0.30528894
185	0xbdaf9e36	-0.08575098
186	0xbe7bc6d1	-0.24587561
187	0x3db487d1	0.088149674
188	0xbebed6f2	-0.37273365
189	0x3e57bc94	0.2106803
190	0x3e4944f9	0.19655217
191	0xbe1eccfb	-0.15507881
192	0x3ee0e5cf	0.4392533
193	0xbf7557b3	-0.95836943
194	0x3d979049	0.07400567
195	0xbee4817f	-0.44630048
196	0xbd8ddcba	-0.06926866
197	0xbf78bf86	-0.9716724
198	0x3ed24211	0.4106603
199	0x3ea9bfd6	0.33154172
200	0xbe57524f	-0.21027492
201	0xc005ac65	-2.0886471
202	0x3f1d4590	0.6143427
203	0x405e3d56	3.4724936
204	0x40661e4c	3.5955992
205	0xbeadfcc5	-0.3398191
206	0xbf36e0b6	-0.7143663
207	0xbf30f9aa	-0.6913096
208	0x3c110d76	0.008853307
209	0x3d7bde16	0.061491095
210	0xbeaa16ba	-0.33220464
211	0xbf40001c	-0.75000167
212	0x3f697f1e	0.9120959
213	0xbe610881	-0.219759
214	0x3fcea876	1.614516
215	0xc0a5055b	-5.1569037
216	0xbddd2d75	-0.10799686
217	0x3e249fec	0.1607663
218	0x3e1789e6	0.14798698
219	0xbf7429d9	-0.95376354
220	0x3e18d42b	0.14924686
221	0xbd74d55c	-0.059773788
222	0x3e2b801b	0.16748087
223	0xbeae28ae	-0.3401541
224	0xbe774733	-0.24148254
225	0x3f432ff6	0.7624506
226	0xbf27c050	-0.6552782
227	0x3cd9af6c	0.026572905
228	0xbf514990	-0.8175287
229	0x3ca21ce8	0.019789174
230	0x3fde5ec2	1.7372668
231	0xbe7bad33	-0.24577789
232	0x3eaa6b00	0.3328476
233	0xbfd72594	-1.6808343
234	0x3f904807	1.1271981
235	0x3f022ce9	0.5084978
236	0xbddc00ca	-0.10742338
237	0xc0482d60	-3.1277695
238	0xbea13d19	-0.31491926
239	0xbea5026b	-0.32228407
240	0x3ea5c83b	0.32379326
241	0xbe10909a	-0.14117661
242	0xbe0ec60c	-0.13942736
243	0xbe80f20b	-0.25184664
244	0xbf1aa19f	-0.60402864
245	0xbee2ffca	-0.44335777
246	0x3fbb2803	1.4621586
247	0xbfec5935	-1.8464724
248	0xbdd8e19e	-0.10589908
249	0xbef0d8c8	-0.4704039
250	0xbf45d1e8	-0.77273417
251	0xbe8c9971	-0.27460817
252	0x3ef43339	0.4769533
253	0x3ed27c51	0.4111047
254	0x3dcb199c	0.09916994
255	0xbe392007	-0.18078624

fc1.bias f4 [128]
0	0xbf51eae1	-0.8199902
1	0xbe81ce58	-0.2535274
2	0xbf49e505	-0.7886508
3	0xbd3f11c4	-0.046647802
4	0xbf6c832a	-0.9238764
5	0xbf13e68c	-0.5777366
6	0xbf29ac8f	-0.6627893
7	0xbebcf1ef	-0.3690333
8	0xbf25f414	-0.6482556
9	0xbf611a09	-0.8793035
10	0xbf594043	-0.8486368
11	0xbf1a3ec0	-0.60252
12	0xbf0cb1c9	-0.5495878
13	0xbe563cfe	-0.20921704
14	0xbf85e6fe	-1.0461118
15	0xbf7c3ffe	-0.98535144
16	0xbf9dd792	-1.2331412
17	0x3e162709	0.14663328
18	0xbf78f380	-0.9724655
19	0x3e72015e	0.23633334
20	0xbd959b74	-0.07305041
21	0xbf911566	-1.1334655
22	0xbf61e155	-0.88234454
23	0xbfa25872	-1.2683241
24	0xbec755eb	-0.38932738
25	0xbf823cfc	-1.0174861
26	0xbefd8f9c	-0.49523628
27	0xbfa644eb	-1.2989782
28	0xbf3b838a	-0.7324759
29	0xbf9bfab6	-1.2185886
30	0xbf147043	-0.579838
31	0xbe590523	-0.21193366
32	0xbf701adc	-0.93790984
33	0x3d17f622	0.037099965
34	0xbf67990d	-0.9046791
35	0xbefd6090	-0.49487734
36	0xbf9b5805	-1.2136236
37	0xbf7345e0	-0.95028496
38	0xbee0b4b8	-0.43887877
39	0xbf1da65f	-0.6158199
40	0xbf5b45b5	-0.8565324
41	0xbf562e92	-0.8366481
42	0xbf68d4cc	-0.909497
43	0xbf3ca0d8	-0.7368293
44	0x3d849615	0.064739384
45	0xbf921f6d	-1.141584
46	0xbfa33625	-1.2750899
47	0xbf3925ab	-0.723231
48	0x3adf968c	0.0017058416
49	0xbebc56ee	-0.36785072
50	0xbe98ef46	-0.2987005
51	0xbf8a42a3	-1.0801586
52	0x3d9f05d1	0.07764781
53	0xbd40fdd3	-0.047117066
54	0xbfd2ad2a	-1.6459095
55	0xbd254a05	-0.040353794
56	0x3e490ce6	0.19633827
57	0xbf363b64	-0.7118437
58	0x3ee0a659	0.43876913
59	0xbf37ee47	-0.7184796
60	0xbf71cdfb	-0.94454926
61	0xbf41e468	-0.75739145
62	0xbf1f4068	-0.6220765
63	0xbfbb148b	-1.4615644
64	0x3e6114a3	0.21980529
65	0xbeef3278	-0.46718192
66	0x3e069712	0.13143566
67	0xbf6bdc12	-0.92132676
68	0xbf567a33	-0.8378021
69	0xbefc8444	-0.4931966
70	0xbda65767	-0.081221394
71	0xbe383b82	-0.1799145
72	0xbee1f377	-0.4413106
73	0x3ee99a90	0.45625734
74	0x3e62f647	0.2216426
75	0xbf978093	-1.1836113
76	0xbf5ef442	-0.8709146
77	0xbe917653	-0.28410587
78	0xbeb154c6	-0.3463499
79	0xbee9ac9d	-0.45639506
80	0xbfaa0279	-1.3282005
81	0xbf7f8699	-0.99814755
82	0x3e1c996d	0.15292902
83	0xbed12ff4	-0.40856898
84	0xbf49d5de	-0.7884196
85	0x3f2f169d	0.6839388
86	0xbe99f719	-0.30071333
87	0xbf61c69c	-0.8819368
88	0xbe3cb460	-0.18428183
89	0xbf6b7292	-0.91971695
90	0x3efe7ed5	0.4970614
91	0xbf4608c6	-0.7735714
92	0x3ed118b2	0.40839154
93	0xbedf3109	-0.43592098
94	0xbee264f2	-0.4421764
95	0xbf5036fb	-0.81333894
96	0x3eef0883	0.4668618
97	0x3e465867	0.1936966
98	0xbf286294	-0.6577542
99	0xbf88c36d	-1.0684639
100	0x3e971f93	0.29516277
101	0x3ed2734f	0.41103598
102	0x3e8c4e1b	0.2740334
103	0xbeabe9d5	-0.33576837
104	0xbf01039c	-0.5039613
105	0xbf79f2fe	-0.976364
106	0x3f04b9b3	0.51845855
107	0xbf9fc818	-1.2482939
108	0xbfd83c8d	-1.6893479
109	0xbf80b9fa	-1.0056756
110	0xbe3739c3	-0.17893128
111	0xbf8c62fb	-1.0967706
112	0xbf26fd81	-0.65230566
113	0xbe3401ca	-0.17578807
114	0x3e969d25	0.29416767
115	0xbf5c5a56	-0.8607534
116	0xbe5c873d	-0.21535964
117	0xbf91e082	-1.1396639
118	0xbfaa9b3d	-1.3328625
119	0xbf295a79	-0.66153675
120	0xbf66aa04	-0.90103173
121	0x3e0447a5	0.12917955
122	0xbe3deaee	-0.1854665
123	0xbe876d22	-0.2645045
124	0xbf7c4cbe	-0.985546
125	0xbf986221	-1.1904947
126	0xbef75a7b	-0.4831122
127	0xbf250d16	-0.6447309

fc2.weight f4 [128, 128]
0	0x3f606254	0.87650037
1	0x3fd0d3e2	1.6314662
2	0x3f83f3d5	1.0308787
3	0xbfb606fd	-1.4220883
4	0x3ea6167d	0.32439032
5	0x3f238dad	0.63888055
6	0xbeb38c6d	-0.35068074
7	0xbe9c795c	-0.3056134
8	0x3eed4e4e	0.46348804
9	0x3eab1409	0.33413723
10	0xbf69a72a	-0.912707
11	0xbf8a0f89	-1.0785991
12	0xbe49fcc6	-0.19725332
13	0xbef4173a	-0.4767397
14	0x3f866f2e	1.0502679
15	0xbb2668df	-0.0025392098
16	0x3d09b3bb	0.03361867
17	0xbf2a9e02	-0.6664735
18	0xbedc8844	-0.43072712
19	0xbc9944dd	-0.018709594
20	0x3e19bb98	0.15012968
21	0xbf306593	-0.6890499
22	0xbf576cc8	-0.8415036
23	0x3e6889b4	0.2270878
24	0x3fc974eb	1.5738806
25	0x3f7beb04	0.9840548
26	0xbdb03a48	-0.08604866
27	0x3f8de0a1	1.1084176
28	0xbcfb23bf	-0.030656694
29	0xbf6bb5bc	-0.9207418
30	0x3f649748	0.89293337
31	0xbf98c0df	-1.193386
32	0x3f759dbe	0.9594382
33	0xbf74205e	-0.9536189
34	0x3f855074	1.0415177
35	0x3f80193d	1.0007702
36	0xbf9b408b	-1.2129072
37	0xbf613a3b	-0.8797948
38	0xbf47ffc9	-0.7812467
39	0xbeaab22d	-0.33339062
40	0xbed1bbf4	-0.4096371
41	0x3f03b369	0.51445633
42	0x3f73a614	0.9517529
43	0x3f650dd0	0.894742
44	0xc001cc94	-2.0281115
45	0xbfb6d377	-1.4283284
46	0x3e29e7c1	0.16592313
47	0xbe769eb0	-0.24083972
48	0xbee172c6	-0.44032878
49	0xc01c8b06	-2.4459853
50	0x3f05d5b6	0.5227922
51	0xbf778c47	-0.9669842
52	0xbe28378d	-0.16427441
53	0x3e336a41	0.17521001
54	0x3fb728e7	1.4309357
55	0x3f31f5c0	0.6951561
56	0x3f8c4b32	1.0960448
57	0xbf11f782	-0.5701829
58	0x3ee7ddbe	0.45286363
59	0xbf128ae2	-0.5724317
60	0x3fa96738	1.3234625
61	0x3f6ebe22	0.9325887
62	0x3fa1a436	1.2628238
63	0xbc6a740f	-0.014309897
64	0x3d8f100c	0.069854826
65	0x3f4ba342	0.79545987
66	0x3e8fb92c	0.28070962
67	0x3fa84678	1.3146505
68	0xbfe93db7	-1.8221959
69	0x3d06e1f2	0.032930322
70	0xc06011f0	-3.5010948
71	0x3f0358cc	0.5130737
72	0x3ec9d64b	0.39421305
73	0x3ef9b9b5	0.48774496
74	0xbe1f16d2	-0.15536049
75	0xbe55137e	-0.20808217
76	0x3f0ece04	0.55783105
77	0x3f33afff	0.70190424
78	0x3fcfd173	1.6235794
79	0x3fa41754	1.2819619
80	0x3d93a9b8	0.07210106
81	0x3b5041b4	0.0031777443
82	0xbf3f4ea2	-0.7472936
83	0xbfdf8d8b	-1.746507
84	0xbf35d033	-0.7102081
85	0xbf2db34d	-0.67851716
86	0x3d13936b	0.03602926
87	0xbf2de465	-0.6792663
88	0x3e8a421d	0.27003565
89	0x3ea620f2	0.3244701
90	0xbf23bcab	-0.6395976
91	0xbf23203a	-0.6372105
92	0x3da39aa1	0.079884775
93	0xbf242c7b	-0.6413037
94	0xbe3c7973	-0.18405704
95	0x3f0d9698	0.5530791
96	0xc005a276	-2.0880408
97	0xbf4f656f	-0.8101415
98	0x3ddebf4d	0.108763315
99	0xbe85dc60	-0.26144695
100	0x3f07ffbc	0.53124595
101	0xbf3c0e39	-0.734592
102	0xbf2b45c4	-0.6690333
103	0xbf5e90ce	-0.86939704
104	0x3f6d7969	0.9276338
105	0xbf03cde1	-0.5148602
106	0xbfb7a0da	-1.4345963
107	0x3fb09c6e	1.3797739
108	0x3e490033	0.19628982
109	0x3d270f97	0.040786352
110	0x3e2a838f	0.16651748
111	0x3f19f240	0.6013527
112	0x3eab072b	0.33403906
113	0x3f703d63	0.9384367
114	0xbf51f5fc	-0.8201597
115	0xbf140ecd	-0.57835084
116	0x3debde94	0.11517063
117	0x3f961bb6	1.1727207
118	0x3f895cf8	1.0731497
119	0x3f10327e	0.56327045
120	0x3fc11d84	1.5087132
121	0xbfebaec1	-1.8412706
122	0xbfcdce7c	-1.6078639
123	0xbe816300	-0.25270844
124	0x3f1f25f9	0.62167317
125	0xbf7f044b	-0.99615926
126	0x3f447745	0.7674449
127	0x3ec90684	0.39262784
128	0xc0286eec	-2.6317701
129	0xbda668f7	-0.08125489
130	0xbf4b1112	-0.7932292
131	0xbf50acdb	-0.81513757
132	0xbd3e47a2	-0.046455033
133	0xbf14e9fd	-0.5816954
134	0xbc38f904	-0.011289839
135	0xbebb65e0	-0.36601162
136	0x3e30ccbc	0.172656
137	0x3e7c1cdf	0.24620388
138	0x3f9c292e	1.2200067
139	0xbf3afcd7	-0.73042053
140	0xbe718411	-0.23585536
141	0x3df57eb4	0.11987057
142	0x3f3b4a3f	0.73160166
143	0x3f640d8c	0.8908317
144	0x3f7c55da	0.985685
145	0xbeb8c1cb	-0.36085352
146	0xc048eaac	-3.1393232
147	0xbd5ea3db	-0.054355484
148	0x3f5100ff	0.81642145
149	0xc008731d	-2.132026
150	0xbf10021c	-0.5625322
151	0xbf0fa192	-0.5610591
152	0x3f397a0d	0.7245186
153	0xbf8141b4	-1.0098176
154	0x3ed5b3ae	0.41738647
155	0x3e0b425f	0.13599537
156	0xbf24d21a	-0.6438309
157	0x3fd9fbf0	1.703001
158	0x3ef1e923	0.47248182
159	0xc0230973	-2.5474517
160	0xbec78187	-0.3896601
161	0x3f42b884	0.760628
162	0x3e7308b6	0.23733792
163	0x3d14a217	0.036287393
164	0x3f39f41e	0.7263812
165	0x3d42a9c3	0.04752518
166	0x3ebe6e9b	0.3719376
167	0xbfa8fa55	-1.3201395
168	0x3f6f3ab4	0.9344895
169	0x3f3e2117	0.7426924
170	0x3f0a6ee6	0.5407547
171	0x3e6dd7c5	0.23226841
172	0x3ea1f278	0.316303
173	0x3f495800	0.786499
174	0xbf249e20	-0.6430378
175	0x3f83774d	1.0270783
176	0x3fa007dd	1.25024
177	0x3eb1d953	0.34736118
178	0x3e8b8a02	0.2725373
179	0xbdf98921	-0.121843584
180	0xbf1274af	-0.57209295
181	0x3ddbec09	0.107383795
182	0x3e27aac6	0.16373739
183	0x3e98fbf3	0.29879722
184	0xbeb3eb9a	-0.35140687
185	0xbf3bf568	-0.73421335
186	0xbf3e649c	-0.7437227
187	0x3e8f7949	0.2802222
188	0x3f13d3d9	0.5774513
189	0x3f130925	0.5743583
190	0xbf85cb1d	-1.045261
191	0x3f9bb4f2	1.2164595
192	0xbf7ccce1	-0.9875012
193	0xbe8840a3	-0.26611814
194	0xc011c052	-2.2773633
195	0xbeb16679	-0.34648493
196	0x3ef2815d	0.4736432
197	0x3e3dfca9	0.18553413
198	0x3e2f12c3	0.17097001
199	0x3f81b869	1.0134403
200	0xbf4fab11	-0.811204
201	0xbf87f2a5	-1.0620924
202	0x3f64bd6d	0.8935154
203	0xbe1fa206	-0.15589151
204	0xbfd9a2d9	-1.7002822
205	0xbf852215	-1.0401026
206	0x3e5ad43d	0.21370025
207	0x3fbec12a	1.4902699
208	0xbfb283bf	-1.3946456
209	0x3eeb0948	0.4590552
210	0xbc0d413c	-0.00862151
211	0xbf572704	-0.8404391
212	0xc0413693	-3.018956
213	0xbe4cd899	-0.200045
214	0xbe352d48	-0.17693055
215	0xc0122f61	-2.2841418
216	0x3f2246d7	0.63389343
217	0x3f70b0e4	0.94019914
218	0xbe7c092d	-0.24612875
219	0x3f8484da	1.0353043
220	0x3f786c03	0.9703981
221	0xbe0cfa62	-0.13767388
222	0xbf271725	-0.6526969
223	0x3fca80a4	1.5820508
224	0xbfa70ac1	-1.3050157
225	0x3efb2d56	0.49058026
226	0x3f701638	0.93783903
227	0x3fd72f68	1.6811342
228	0x3eb182f5	0.34670225
229	0xbfd2029d	-1.6407048
230	0xbf57340d	-0.840638
231	0xbf3d9289	-0.7405172
232	0xbe5635ab	-0.2091891
233	0x3e9f8dda	0.31162912
234	0xbe752745	-0.23940761
235	0xc0024afb	-2.0358264
236	0x3f0f6859	0.56018597
237	0x3f78fe08	0.9726262
238	0xbfc5179c	-1.539783
239	0xbe4aa198	-0.19788206
240	0x3f9d5774	1.2292314
241	0x3eee6b0a	0.4656604
242	0xbf0879ba	-0.5331074
243	0xbefd27d5	-0.49444452
244	0xbe99caaa	-0.30037433
245	0x3f89be50	1.0761204
246	0xbf182536	-0.5943178
247	0xbf990484	-1.1954503
248	0x3f97dac5	1.1863638
249	0xbeedecc9	-0.46469715
250	0xbf3d949b	-0.7405488
251	0xbee3a9c0	-0.44465446
252	0xbc8284f9	-0.015932547
253	0x3fb08319	1.3790008
254	0x3f31dfd2	0.6948215
255	0x3ea731ed	0.32655278

fc2.bias f4 [128]
0	0xbf3fa522	-0.7486135
1	0xbfa667ee	-1.3000467
2	0xbf0af3cc	-0.54278255
3	0xbf4d111c	-0.8010423
4	0xbf2594c7	-0.6468014
5	0xbfe69c6f	-1.801649
6	0xbf03210f	-0.5122232
7	0xbf0f3ee7	-0.55955356
8	0xc0169b80	-2.353241
9	0xbec648f6	-0.3872754
10	0xbf8a3136	-1.0796268
11	0xbf524e3c	-0.82150626
12	0xbf17a899	-0.59241635
13	0xbf3eaafd	-0.7447966
14	0xbe4f8382	-0.2026501
15	0xbebc725d	-0.36806002
16	0x3f4aa656	0.7916006
17	0xbf3edf29	-0.74559265
18	0xbefac7fc	-0.489807
19	0xbee16cd5	-0.44028345
20	0xbfc6186d	-1.5476204
21	0xbfaf534d	-1.3697296
22	0xbef7e9b2	-0.48420483
23	0xbfd70dab	-1.6801046
24	0xbdbffd6c	-0.09374508
25	0xbf8756dd	-1.0573384
26	0xbf8cd93e	-1.1003797
27	0xbe0c70dc	-0.13714927
28	0xbf001213	-0.5002758
29	0xbf90d6c7	-1.1315545
30	0xbf5f7e13	-0.8730175
31	0xbf408e3e	-0.75217044
32	0x3d942698	0.07233924
33	0xbf709739	-0.9398075
34	0xbecd23d0	-0.40066385
35	0xbf7815d8	-0.9690833
36	0x3c2485a8	0.010041632
37	0xbd90788f	-0.07054245
38	0xbfbbf904	-1.4685369
39	0xbe878652	-0.26469666
40	0xbed45046	-0.41467494
41	0xbe4b0ace	-0.1982834
42	0xbe28423a	-0.16431513
43	0xbf936bfd	-1.151733
44	0xbfb5a26e	-1.4190195
45	0xbfd60013	-1.6718773
46	0xbe5fcb28	-0.21854842
47	0xbf47b5a9	-0.78011566
48	0xbf19b406	-0.6004032
49	0xbeb4e0c8	-0.35327744
50	0xbee08f81	-0.43859485
51	0xbf2628ae	-0.6490582
52	0xbf978527	-1.183751
53	0xbf63e47a	-0.890205
54	0xbf57820f	-0.8418283
55	0xbf80f5cb	-1.007501
56	0x3e8db9eb	0.27680907
57	0xbf860541	-1.0470353
58	0xbf44cb08	-0.768723
59	0xbe795cb4	-0.2435177
60	0x3e59c22e	0.2126548
61	0x3da82a94	0.08211246
62	0xbf3ddd3d	-0.7416571
63	0xbe82c558	-0.25541186
64	0xbf88fe1e	-1.070255
65	0xbeac4c03	-0.33651742
66	0xbf450b59	-0.7697044
67	0xbfda171b	-1.7038301
68	0xbecc9cd6	-0.39963406
69	0xbf2a5ac0	-0.66544724
70	0xbdaa6ec8	-0.08321911
71	0xbf326cf6	-0.6969751
72	0x3c2ae799	0.010431194
73	0xbd93aef5	-0.07211105
74	0xbfc84c46	-1.5648277
75	0xbf8cf896	-1.1013362
76	0xbea1cd2c	-0.31601846
77	0x3d843619	0.06455631
78	0x3dfd0331	0.12354124
79	0xbfbd1b19	-1.4773895
80	0xbf00d673	-0.50327224
81	0xbe677d10	-0.22606301
82	0xbdf7f4cb	-0.121072374
83	0xbf8466a1	-1.034382
84	0xbf7346b7	-0.9502978
85	0xbfa9938d	-1.3248154
86	0x3e859871	0.26092866
87	0xbf879c19	-1.0594512
88	0xbf5add67	-0.85494083
89	0xbf921f34	-1.1415772
90	0xbcff9638	-0.03119956
91	0x3e14569b	0.14486162
92	0xbf84957f	-1.0358123
93	0xbf605108	-0.87623644
94	0xbfcc20db	-1.5947527
95	0xbf634f8b	-0.8879325
96	0xbf148d13	-0.5802776
97	0xbf0404a3	-0.51569575
98	0x3e47276e	0.19448635
99	0xbfb90652	-1.4455054
100	0xbf29b8f4	-0.6629784
101	0xbff20729	-1.8908435
102	0xbeafd458	-0.34341693
103	0xbf2c597f	-0.6732406
104	0xbf58b4ee	-0.84651077
105	0xbe6f776f	-0.23385404
106	0xbfc2990b	-1.5202955
107	0xbebbb23e	-0.36659425
108	0xbfc2d97c	-1.5222621
109	0xbdac8b7d	-0.08425043
110	0xbfa39241	-1.2779008
111	0xbf4bab49	-0.79558235
112	0xbfa2fee3	-1.2734035
113	0xbf9771ca	-1.1831601
114	0xbe75a807	-0.23989879
115	0x3c31a738	0.010843091
116	0x3d90d0c7	0.07071071
117	0xbf994262	-1.1973383
118	0xbf1100ea	-0.5664202
119	0xbf3f562c	-0.7474086
120	0xbefb5774	-0.4909016
121	0xbf129d68	-0.5727143
122	0xbf39c6c1	-0.725689
123	0xbf806f03	-1.0033878
124	0xbe594785	-0.21218689
125	0xbf183137	-0.59450096
126	0xbdfd8f3c	-0.123808354
127	0xbeebc5ab	-0.46049246

fc3.weight f4 [4, 128]
0	0xbf8671a5	-1.0503432
1	0xbfa96406	-1.323365
2	0xbf135cc1	-0.57563406
3	0xbf5e8fef	-0.86938375
4	0xbdd78b11	-0.10524572
5	0xbf6bb1d6	-0.9206823
6	0xbd886cbc	-0.066613644
7	0x3db91787	0.090376906
8	0x3fa278e4	1.2693143
9	0xbf03d3ae	-0.5149487
10	0x3de140cb	0.109986864
11	0xbf8961c6	-1.0732963
12	0x3f124231	0.5713225
13	0x3e5518d3	0.20810251
14	0x3eabe3e0	0.33572292
15	0xbd0cc0e2	-0.034363635
16	0x3f4fece4	0.8122084
17	0x3ee3965e	0.4445066
18	0x3fbcc7ee	1.4748514
19	0x3e8f8d05	0.28037277
20	0xbfd8d7b8	-1.6940832
21	0xbf32b69c	-0.6980989
22	0xbf705c73	-0.93891066
23	0x3d985328	0.07437736
24	0x3f9da6e0	1.2316551
25	0xbea479b6	-0.32124108
26	0x3fa44476	1.2833393
27	0xbcb9fd83	-0.022703892
28	0x3f9efd06	1.2420967
29	0xbf495eb8	-0.78660154
30	0xbf35519d	-0.70827657
31	0x3c707b16	0.0146777835
32	0x3fa52954	1.2903237
33	0x3ec7a1cb	0.38990626
34	0x3fc03ad8	1.5017958
35	0x3f622c6a	0.8834902
36	0xbf8d210a	-1.1025708
37	0xbebb099a	-0.36530763
38	0xbf51d4ae	-0.8196515
39	0xbf03ae41	-0.51437765
40	0xbf148ba5	-0.5802558
41	0xbe93efd0	-0.288939
42	0xbf7b46ef	-0.9815511
43	0xbfc81ec2	-1.5634387
44	0x3f93a5bc	1.1534953
45	0xbfd6567a	-1.674514
46	0xbfe89c16	-1.8172634
47	0x3f4f6faf	0.8102979
48	0xbf065d1d	-0.5248583
49	0x3f12552a	0.571612
50	0x3f5ff64f	0.8748521
51	0x3d89bea7	0.06725817
52	0x3f830c42	1.0238116
53	0xbf858ebe	-1.0434186
54	0xbfa94ac9	-1.3225948
55	0xbcf915c9	-0.030405896
56	0xbeb75f52	-0.3581491
57	0x3f34849b	0.7051484
58	0xbec74a5b	-0.38923916
59	0x3f32f83c	0.69910026
60	0x3f0bd752	0.5462543
61	0xbf32cdf6	-0.6984552
62	0xbfa8728f	-1.315996
63	0xbf116d68	-0.56807566
64	0x3f1ee6e6	0.62071073
65	0xbe8c8a3f	-0.27449223
66	0xbf071a45	-0.5277446
67	0xc004807b	-2.0703418
68	0xbbce9c01	-0.006305218
69	0xbfb87b61	-1.4412652
70	0x3ff9b1f2	1.950743
71	0xbf850a25	-1.0393721
72	0xbf33f1d5	-0.7029088
73	0xbf011df9	-0.5043636
74	0x3dc67c00	0.0969162
75	0x3dfe7838	0.12425274
76	0x3f6cc7b4	0.9249222
77	0x3e54a75b	0.20766966
78	0x3f81efcb	1.0151304
79	0xc00aa472	-2.166287
80	0x3f7e2c7e	0.9928664
81	0xbf7e8405	-0.99420196
82	0xbfa9f6f6	-1.3278491
83	0x3eef019c	0.46680915
84	0xbe56c762	-0.20974496
85	0xbf06adff	-0.52609247
86	0xbf7a3579	-0.9773784
87	0xbfdb2998	-1.7122068
88	0x3f54e249	0.83157784
89	0xbf17c4e4	-0.59284806
90	0x3fdfc65e	1.7482412
91	0xbef52f23	-0.47887525
92	0x3ed5aa28	0.4173138
93	0xbe029ac6	-0.12754354
94	0xc01b61cc	-2.427844
95	0xbeb842c4	-0.35988438
96	0x3f970e8c	1.1801314
97	0x3fb2409e	1.392597
98	0x3e864ebc	0.26231945
99	0xbe90f90d	-0.2831501
100	0x3fe49bda	1.7860062
101	0x3fe1346e	1.7594125
102	0x3f0b4e1f	0.5441608
103	0xbe12d4e6	-0.14339027
104	0x3ece7612	0.40324455
105	0x3fb47e5d	1.4101063
106	0x3db847b9	0.08998055
107	0x3d7cb0be	0.061691992
108	0xbfe085e7	-1.7540864
109	0x3f98fd0a	1.1952221
110	0x3e7297ce	0.23690721
111	0xbfc510e3	-1.5395778
112	0xbfc5de6c	-1.5458503
113	0x3c6f063a	0.014588887
114	0xbf842412	-1.0323508
115	0xbe072a55	-0.13199742
116	0x3f1690be	0.5881461
117	0x3f8edb35	1.1160647
118	0x3eba745b	0.36416897
119	0x3f76a19e	0.9634036
120	0xbe5540dd	-0.20825525
121	0xbf01432b	-0.50493115
122	0x3fdad709	1.7096874
123	0x3f6d61f0	0.92727566
124	0x3ebf854f	0.37406394
125	0xbe9374dd	-0.28800097
126	0xbfc5c465	-1.545056
127	0x3b11f100	0.0022268891
128	0xbfc66f96	-1.5502803
129	0xbeaf0dcc	-0.34190214
130	0xbf96273a	-1.1730721
131	0x3f9f89af	1.2463893
132	0xbf83997d	-1.0281216
133	0xbf83c8f5	-1.0295702
134	0x3f977b0c	1.1834426
135	0xbee63b45	-0.44967094
136	0x3e9046ea	0.28179103
137	0xbf6fd428	-0.936831
138	0x3fb68df5	1.4262072
139	0x3f0bf8fe	0.54676807
140	0x3f901aab	1.1258138
141	0xbe8b0c58	-0.27157855
142	0x3ed11baf	0.40841433
143	0xbf08bf5b	-0.53416985
144	0xbf26ca3d	-0.6515234
145	0xbf998132	-1.1992552
146	0x3cd85a18	0.026410148
147	0x3f8c9aa7	1.0984696
148	0x3fafddd7	1.3739575
149	0xc0058e9a	-2.0868287
150	0xbfa0bd02	-1.2557681
151	0xbf5281c0	-0.8222923
152	0xbe9ae7c5	-0.3025495
153	0x3e8c2710	0.27373552
154	0x3eead688	0.458668
155	0xbf1464b2	-0.5796615
156	0xbf5085dc	-0.81454253
157	0xbeb87833	-0.36029205
158	0xbfb2f9f5	-1.3982531
159	0x3ea38196	0.31934804
160	0xbf1d6876	-0.6148752
161	0x3fb2819c	1.3945804
162	0xbfacadc3	-1.3490528
163	0xbf93a082	-1.1533358
164	0xbf07d0b7	-0.5305285
165	0xbf75f173	-0.9607155
166	0x3f559000	0.8342285
167	0x3f1b7bb4	0.6073563
168	0xbee04197	-0.4380004
169	0xbfa27707	-1.2692574
170	0xbead8dd0	-0.33897257
171	0xbeb0175b	-0.3439282
172	0x3f801c67	1.0008668
173	0x3e34fa7b	0.17673676
174	0x3e7de19a	0.24793091
175	0xbfe811ee	-1.8130472
176	0x3ff5c476	1.920058
177	0xbfa173cf	-1.2613467
178	0x3f5d1b3e	0.86369693
179	0x3e6907e6	0.2275692
180	0xbdb0d081	-0.08633519
181	0x3f9ec793	1.2404655
182	0xbdcc8f64	-0.09988287
183	0x3e936f42	0.2879582
184	0x3f8762b5	1.0576998
185	0xbf2e55bd	-0.68099576
186	0xbf9b32dd	-1.2124897
187	0x3fc6cad9	1.5530654
188	0x3f1c6af0	0.61100674
189	0x3fd428ed	1.657499
190	0x3f6f260e	0.9341744
191	0x3fe6c295	1.8028132
192	0x3f86d40d	1.0533463
193	0x3fd7798b	1.6833967
194	0xbe341ad4	-0.17588359
195	0x3feb722d	1.8394219
196	0x3e793314	0.24335891
197	0x3f3a566b	0.72788113
198	0xbedc1759	-0.42986563
199	0xbfc255a9	-1.5182391
200	0x3fb99443	1.4498371
201	0x3ee21815	0.44158998
202	0xbe34ef74	-0.17669469
203	0x3f8fcf43	1.1235126
204	0x3f9f3564	1.2438169
205	0x3fd0a5ea	1.6300633
206	0x3f34c0ed	0.7060688
207	0x3d9708b6	0.07374708
208	0xbef12659	-0.4709957
209	0x3f12dd83	0.5736925
210	0xbf295d30	-0.6615782
211	0xc006c225	-2.1055996
212	0x3f9908fa	1.1955864
213	0x3f56aa4d	0.8385361
214	0x3ee33af6	0.4438092
215	0x3f19585b	0.59900445
216	0x3f8a00ab	1.0781454
217	0xbfbb4526	-1.4630477
218	0x3e52f662	0.206018
219	0x3c3036e8	0.010755278
220	0x3c9b89f3	0.018986678
221	0xbecfb201	-0.40565494
222	0x3fc0e0a6	1.5068557
223	0xbf2cc772	-0.6749183
224	0x3eb9eb9f	0.36312577
225	0xbfb8ac99	-1.4427673
226	0x3f5874b1	0.84553057
227	0xbf6a8278	-0.9160533
228	0xbfa4d207	-1.2876595
229	0x3f3704b3	0.71491545
230	0x3f47bfef	0.7802724
231	0x3ea57c39	0.32321337
232	0x3f8386e8	1.0275545
233	0x3fc39fa9	1.52831
234	0xbd72cb19	-0.05927572
235	0xbf8f859e	-1.1212652
236	0x3f6979f6	0.9120172
237	0xbf16d090	-0.5891199
238	0xbf804ab2	-1.0022795
239	0x3eb73e7e	0.35789865
240	0x3e80bbb1	0.25143197
241	0x3e5229ba	0.2052373
242	0x3f360e24	0.71115327
243	0xbef6f372	-0.4823261
244	0x3f484d2a	0.78242743
245	0xbfe9a960	-1.8254814
246	0xbf7ac4dd	-0.9795664
247	0x3e428baf	0.18998598
248	0x3ff2b79e	1.8962286
249	0xbffed332	-1.9908202
250	0x3d3ce118	0.046113104
251	0x3f190b8b	0.5978324
252	0x3ddb859f	0.107188456
253	0xbf29634e	-0.6616715
254	0xbeb3a0c2	-0.35083586
255	0x3dba9ee6	0.09112339

fc3.bias f4 [4]
0	0x3e214735	0.1574982
1	0xbe0d7073	-0.13812427
2	0x3d4dc3dc	0.050235614
3	0x3e337c40	0.17527866
